trained_model/checkpoints/best_epoch=953.ckpt (torch, 400335 bytes, 330 tensors)

model.convs1.0.weight f4 [16, 4]
0.37770367 0.27927223 0.37953866 0.78989345 -0.22230977 0.22863576 -1.8030195 0.3665117
0.46445817 -0.05597813 2.1146502 0.054455314 0.718094 0.23788631 2.3111682 0.15326284
1.0111868 -0.04572529 -0.8865567 -0.71276104 -0.62709165 0.02798982 -1.4632741 0.47114205
-0.9313924 0.066539794 -0.110614255 -0.31294525 0.7670934 -0.22280557 -0.86677927 -0.39781556
0.58130187 -0.113662794 -1.4657025 0.6770876 0.3743778 2.415764 -0.12423168 1.8043766
0.3247933 -1.6926516 0.059507046 -1.5514976 1.4429868 -0.18848725 2.030476 0.21837008
0.4633235 -0.23684007 -0.5870127 -0.2760429 0.37313312 1.5742675 0.22064744 1.5156851
0.49946916 -0.13099334 1.354744 -0.029519185 0.395635 -1.3149978 -0.37569153 -1.5145854
00000000: 6062 c13e c5fc 8e3e e452 c23e 7536 4a3f
00000010: 2ca5 63be 7e1f 6a3e 58c9 e6bf 6ca7 bb3e
00000020: 76cd ed3e 5349 65bd 6e56 0740 890c 5f3d
00000030: 02d5 373f 7898 733e 2eea 1340 eff0 1c3e
00000040: 926e 813f 714a 3bbd 61f5 62bf 8277 36bf
00000050: 1489 20bf e84a e53c 914c bbbf 8839 f13e
00000060: bb6f 6ebf 0446 883d ba89 e2bd 5c3a a0be
00000070: 3c60 443f 2527 64be 3fe5 5dbf 7bae cbbe
00000080: 33d0 143f 0ac8 e8bd 249c bbbf 9d55 2d3f
00000090: 72ae bf3e e19b 1a40 2e6d febd d0f5 e63f
000000a0: 4f4b a63e cfa8 d8bf a9bd 733d 7997 c6bf
000000b0: cbb3 b83f cd02 41be 52f3 0140 689c 5f3e
000000c0: bd38 ed3e 3486 72be 7746 16bf 7f55 8dbe
000000d0: 4e0b bf3e 9981 c93f 67f1 613e f801 c23f
000000e0: 6cba ff3e 1e23 06be 4068 ad3f 38d2 f1bc
000000f0: ac90 ca3e d951 a8bf a45a c0be efdd c1bf

model.convs1.0.bias f4 [16]
2.41195 0.06266706 1.1815106 -1.3738003 2.2078738 -0.6494737 3.1577935 2.0498545
3.5139897 -1.9986229 -0.495548 -2.6568077 -0.61312294 0.41360214 0.5259829 1.069736
00000000: 645d 1a40 9657 803d bd3b 973f b0d8 afbf
00000010: ce4d 0d40 e943 26bf 4a19 4a40 d130 0340
00000020: 35e5 6040 e0d2 ffbf 78b8 fdbe 2309 2ac0
00000030: a0f5 1cbf a9c3 d33e d1a6 063f 1ced 883f

model.convs1.1.weight f4 [16, 16]
-0.50914174 0.026777292 0.59873503 0.6351211 1.1358529 -0.7709009 -2.0933247 0.70765424
0.40848187 0.91634446 -0.48508167 -1.8290727 0.87082136 0.18543921 0.9289125 0.6181782
1.1256919 -1.3845086 2.1605957 -0.11283997 -0.7150999 -1.6571069 1.6692051 -1.824211
-0.55127144 -0.07605957 0.9180643 -2.3070054 1.5804472 -0.72328025 -0.06850062 -1.0216824
0.7035809 0.6808662 -0.57250315 -0.94740427 -0.30132377 0.71129525 0.3740763 -0.49471822
0.30530232 2.2621734 -3.1930327 -1.1484072 -2.1674075 7.364998 -2.3624399 -3.1277187
-0.47669962 -1.7937777 -0.2050489 0.1221869 0.88235724 -0.6102158 -2.3624756 0.99916553
-0.10188499 0.08627156 -0.41606697 2.1303728 1.2531569 0.98026115 1.0163156 0.77974355
0.60814875 -2.7896032 0.5630824 -0.97314733 1.2687209 1.1401438 0.10878214 0.43813133
1.5262164 0.31540892 -0.1521275 -0.9773182 0.20911399 -0.33007088 -0.5726891 0.26114565
1.8479813 -0.7147988 3.7392974 1.82309 0.3415172 -1.6827979 1.4123303 0.21995005
-0.51688164 -0.83214444 -1.5321851 -0.3226594 -2.9945416 -0.025241816 2.3288908 0.12705591
-1.0591495 -0.09227698 -0.13675722 -0.2918287 2.2556617 -0.90723306 1.0428407 1.132577
-0.23560116 0.51770175 -0.20538285 -1.1541518 -0.2313499 0.05491845 0.17185336 0.24976115
-0.63263154 -0.26720297 0.58881634 1.7097601 -0.2124764 1.0825772 2.9359608 1.100455
0.4411323 -1.2313788 -0.9337785 0.085258305 -2.8707354 -0.46474215 -0.9553389 -0.79500365
-0.8886825 2.339535 -0.2802601 -0.8236457 -1.2073755 -1.1456163 0.9846966 -2.3670967
-1.0856352 0.56226194 4.3678446 0.38978285 -1.1517751 -4.2744393 0.14174862 5.1408443
2.120498 0.111947946 0.41601217 -0.037171654 -1.4851379 -0.11685627 0.41943696 0.9644332
1.6271138 -0.016964374 -0.059588686 -0.96685046 -1.3761642 -0.008844975 -0.55757576 0.27132183
0.23815064 0.67534626 0.4012007 -0.08697653 -0.15721716 0.20762555 -0.1730087 1.1524636
0.56255543 -2.3836713 0.16849963 -0.11674981 1.6846097 4.47786 -0.702805 -5.319295
0.111032575 0.1927752 -0.04688909 0.24279489 0.096001096 0.2753 -0.103202015 -0.11816817
-0.15983632 0.05099217 0.20549694 -0.13941282 0.18388166 -0.08835299 0.10897227 -0.04662716
1.7050302 2.7507405 -1.0421681 -2.1156394 2.356091 -0.6876699 2.5438414 1.3683488
2.9903748 -1.3794167 -2.1334205 0.6604241 -1.7405841 -1.7223893 0.58357024 -1.2710922
-0.3068997 -0.12937911 0.73210245 0.99276537 -0.6150699 0.59194463 1.1038421 0.47715506
0.5336687 -0.29855114 0.83234435 0.2938484 0.0657006 0.5571846 -0.4335843 0.06434868
-0.33605093 -0.48321578 0.062280413 -0.227779 -0.14997354 -0.73073906 0.726262 0.7114237
1.6558781 0.52386385 0.51071274 -0.5217571 -0.24479978 0.44580573 0.47267422 0.03534038
1.1017045 1.016461 1.0165334 0.8557996 0.21816121 -0.82017857 -0.31165212 -0.79630643
-0.94812447 0.23801383 -0.65583515 -0.67507297 0.08208513 0.119943306 0.5669349 0.31580147
00000000: 1d57 02bf 0d5c db3c b346 193f 4c97 223f
00000010: a163 913f c359 45bf 08f9 05c0 d428 353f
00000020: 8924 d13e 8d95 6a3f a05c f8be 0e1f eabf
00000030: 26ee 5e3f c7e3 3d3e 36cd 6d3f ed40 1e3f
00000040: ac16 903f 9437 b1bf 3347 0a40 a418 e7bd
00000050: c910 37bf 141c d4bf 83a8 d53f bf7f e9bf
00000060: 2020 0dbf 1fc5 9bbd 4306 6b3f faa5 13c0
00000070: 184c ca3f e528 39bf 0e4a 8cbd 7dc6 82bf
00000080: e11d 343f 3f4d 2e3f 918f 12bf 1689 72bf
00000090: 1c47 9abe 7217 363f ee86 bf3e b54b fdbe
000000a0: 9650 9c3e 73c7 1040 a65a 4cc0 02ff 92bf
000000b0: ceb6 0ac0 10ae eb40 3732 17c0 8b2c 48c0
000000c0: f911 f4be 829a e5bf 57f8 51be 203d fa3d
000000d0: 2ae2 613f 1a37 1cbf cd32 17c0 50c9 7f3f
000000e0: 14a9 d0bd 25af b03d bb06 d5be 0758 0840
000000f0: 7267 a03f 65f2 7a3f a116 823f 469d 473f
00000100: a3af 1b3f dc88 32c0 2b26 103f 2f20 79bf
00000110: 7265 a23f 3bf0 913f 2cc9 de3d c052 e03e
00000120: 0f5b c33f 477d a13e 50c7 1bbe 8731 7abf
00000130: fa21 563e 0dff a8be c19b 12bf e2b4 853e
00000140: a78a ec3f 0efd 36bf a650 6f40 035b e93f
00000150: 58db ae3e ec65 d7bf 3dc7 b43f 963a 613e
00000160: 5b52 04bf 6b07 55bf a41e c4bf 9d33 a5be
00000170: 92a6 3fc0 edc7 cebc 8c0c 1540 f21a 023e
00000180: 3692 87bf b7fb bcbd 160a 0cbe 926a 95be
00000190: c35c 1040 6d40 68bf ce7b 853f 48f8 903f
000001a0: 6e41 71be 1a88 043f e24f 52be 3fbb 93bf
000001b0: fde6 6cbe 2bf2 603d 54fa 2f3e 63c1 7f3e
000001c0: 24f4 21bf d4ce 88be abbc 163f 6bd9 da3f
000001d0: 6a93 59be e491 8a3f c8e6 3b40 b6db 8c3f
000001e0: 18dc e13e d29d 9dbf 1c0c 6fbf e89b ae3d
000001f0: 21ba 37c0 aff2 edbe 1791 74bf 5c85 4bbf
00000200: b280 63bf f1ba 1540 407e 8fbe 72da 52bf
00000210: 488b 9abf 8ea3 92bf 1415 7c3f 837e 17c0
00000220: 18f6 8abf 66f0 0f3f 62c5 8b40 9e91 c73e
00000230: 5e6d 93bf 35c8 88c0 8d26 113e cc81 a440
00000240: 3db6 0740 f744 e53d 8cff d43e 4e41 18bd
00000250: 0019 bebf 5752 efbd 71c0 d63e 18e5 763f
00000260: 4445 d03f dff8 8abc 4413 74bd 8383 77bf
00000270: 2626 b0bf 84ea 10bc 49bd 0ebf b2ea 8a3e
00000280: c3dd 733e 7ee3 2c3f 2e6a cd3e c020 b2bd
00000290: 89fd 20be cb9b 543e 3129 31be ed83 933f
000002a0: a203 103f 128e 18c0 2b8b 2c3e 861a efbd
000002b0: 4aa1 d73f a14a 8f40 07eb 33bf aa37 aac0
000002c0: 0c65 e33d dd66 453e c60e 40bd 399f 783e
000002d0: 399c c43d 1ff4 8c3e 945b d3bd 2702 f2bd
000002e0: 22ac 23be 2add 503d ca6d 523e 3cc2 0ebe
000002f0: 794b 3c3e 6af2 b4bd da2c df3d 1ffc 3ebd
00000300: 6e3e da3f 220c 3040 c465 85bf a366 07c0
00000310: 32ca 1640 220b 30bf 4cce 2240 0e26 af3f
00000320: 4d62 3f40 ba90 b0bf f689 08c0 8e11 293f
00000330: 76cb debf 4177 dcbf dc64 153f 26b3 a2bf
00000340: f521 9dbe f57b 04be 116b 3b3f df25 7e3f
00000350: 3975 1dbf af89 173f b34a 8d3f ab4d f43e
00000360: 839e 083f b2db 98be 8514 553f 4c73 963e
00000370: 098e 863d a6a3 0e3f c3fe ddbe 3ec9 833d
00000380: de0e acbe 0f68 f7be bf19 7f3d e63e 69be
00000390: aa92 19be b711 3bbf 4eec 393f dd1f 363f
000003a0: d0f3 d33f f11b 063f 12be 023f e091 05bf
000003b0: cbac 7abe a640 e43e 5b02 f23e 13c1 103d
000003c0: a704 8d3f 651b 823f c41d 823f af15 5b3f
000003d0: a765 5f3e 39f7 51bf de90 9fbe bdda 4bbf
000003e0: 49b8 72bf e6b9 733e d0e4 27bf 95d1 2cbf
000003f0: 401c a83d d6a4 f53d a522 113f bbb0 a13e

model.convs1.1.bias f4 [16]
0.5072413 -0.80959284 -0.6114017 0.5495509 0.6612272 1.7325009 0.7548069 0.3076697
0.8380294 0.47015867 0.22380474 -0.0382708 3.3281312 -0.4942351 1.6193459 -0.2157286
00000000: 91da 013f 7a41 4fbf d284 1cbf 5eaf 0c3f
00000010: 3046 293f 97c2 dd3f 063b 413f e286 9d3e
00000020: 1889 563f a3b8 f03e 122d 653e d8c1 1cbd
00000030: 1a00 5540 620c fdbe ba46 cf3f f5e7 5cbe

model.convs1.2.weight f4 [32, 16]
0.011847441 -1.4047512 -3.1535532 0.2565393 0.2026606 -0.80211526 0.49853796 0.32726535
-0.93941957 -0.21279246 2.4558601 -1.6740526 0.47719803 0.30386177 0.34248763 0.26731408
-1.3362874 -2.4984732 -0.7278616 -2.1609647 1.879192 -1.4637057 -1.8571942 -0.26692978
1.5923779 -1.412933 1.2607698 -0.21509825 2.6556966 1.2574025 -1.8629488 -1.0686216
-2.484438 -0.320539 -0.07480321 0.314974 -0.80150896 -2.0949967 -1.0465578 1.289876
-0.02886677 -0.031449866 -0.7792883 -0.7587003 0.03589766 0.32603848 -1.4506919 0.8348595
-1.5964816 0.17596489 -0.3685987 -0.962763 0.319619 0.7683082 2.2756085 1.2924815
1.3780434 -1.1754168 0.42683694 -2.445765 0.66624457 -0.4350446 0.8003451 -0.0057163415
-1.2618684 -0.32329834 -0.16053677 -0.28993976 -0.09315205 0.6343421 -1.7243252 -0.17411269
-0.15594484 2.2537742 0.031019105 -2.1719248 0.79601294 -0.19951908 0.9840307 0.3543064
0.07207178 0.9151211 -0.4916307 -0.9407634 -0.19559449 0.96966255 -1.0262744 -0.79124373
-0.034097593 -0.6737195 0.50980544 0.24056184 0.046579283 0.20564637 -0.62824064 -0.22837737
-0.58790356 -0.5249216 -0.16550535 0.21423952 -0.27092475 3.2422156 0.12078288 0.36552387
0.2591268 0.7111011 0.2585465 -0.9046087 -0.5807363 -0.6615893 -1.1926626 0.24056154
-0.86540186 2.9644194 -0.124530636 -0.4243437 0.21095243 1.0767324 1.1041116 -1.1645018
0.016314203 1.1357862 0.055927966 -0.44066224 -0.56700885 -0.9020046 -1.0062907 0.7953498
0.9295101 0.14037563 -0.6690729 -0.35513124 -0.2691393 -0.41661566 -0.9265115 -0.90980035
1.2325921 1.5287075 0.5175219 -0.46184227 -0.41087052 -0.2341071 0.8819579 -1.0049659
0.27838817 -0.9691284 0.84517556 -0.47310674 0.34612924 -0.087339476 0.230752 0.2375104
-3.1319861 -0.7130375 1.5839556 -0.699085 0.5917076 0.004789762 0.5404495 -0.2268813
0.19520101 -0.11760606 -0.973994 0.07755196 -0.11825755 0.8514364 -0.8395025 0.6314028
-0.46344215 -0.6093994 0.7992418 -0.5615153 0.48709607 -0.07237155 -1.4900426 -0.4402728
0.6154838 0.021037757 0.50735635 0.07741848 -0.95372236 -0.76815784 0.9053141 0.23053463
-0.102242805 0.39165923 -0.40840802 -0.47932252 0.1106598 0.45216742 0.810279 0.49099112
0.2828846 -1.8785783 -3.4541664 0.22552903 0.3070757 1.2229117 0.38914382 0.8901503
-5.368628 0.76760733 -2.5645287 -0.038340908 2.6579049 -0.21689187 0.67456216 -0.110869795
-0.50682634 -0.04129585 0.43772763 -0.8532811 0.62698334 -0.4466843 -0.41667864 -0.27114826
-0.3297073 -0.71002203 -0.58393425 0.27242273 -0.1620154 1.6439133 0.20741606 0.8548797
1.3663774 -0.14738628 0.3106459 0.64700615 -0.44809008 0.4144251 0.17029534 -1.5009813
0.88773596 -2.0119603 -0.3028973 -2.929093 2.3149905 0.06525788 1.2848115 -0.0030416043
1.8806177 -1.6542614 -0.28289494 1.0449154 -0.6418105 -0.6106434 -0.727104 -0.4221559
-1.1520809 -0.48009235 -0.4488935 -0.12359865 -0.3230365 1.82585 -1.1646512 -0.42290175
00000000: c51b 423c e3ce b3bf d1d3 49c0 1e59 833e
00000010: 4386 4f3e 6d57 4dbf 5e40 ff3e 538f a73e
00000020: cd7d 70bf 44e6 59be d02c 1d40 5b47 d6bf
00000030: 4d53 f43e c593 9b3e 8a5a af3e 64dd 883e
00000040: 770b abbf fce6 1fc0 2355 3abf 3f4d 0ac0
00000050: 5d89 f03f b55a bbbf 8ab8 edbf 05ab 88be
00000060: 0ad3 cb3f fdda b4bf e860 a13f b742 5cbe
00000070: eff6 2940 91f2 a03f 1b75 eebf 98c8 88bf
00000080: 0801 1fc0 b01d a4be 6d32 99bd 4644 a13e
00000090: b12f 4dbf 6d14 06c0 9bf5 85bf a81a a53f
000000a0: 017a ecbc 93d1 00bd 707f 47bf 2f3a 42bf
000000b0: 6d09 133d 84ee a63e 46b0 b9bf 5ab9 553f
000000c0: 8259 ccbf 2430 343e f8b8 bcbe a377 76bf
000000d0: 1aa5 a33e d9af 443f 92a3 1140 0970 a53f
000000e0: ba63 b03f 0f74 96bf 5f8a da3e 6a87 1cc0
000000f0: 018f 2a3f 2abe debe 6be3 4c3f 2650 bbbb
00000100: e784 a1bf 5c87 a5be c063 24be fc72 94be
00000110: 81c6 bebd 3e64 223f b0b6 dcbf 994a 32be
00000120: 01b0 1fbe d63d 1040 c71b fe3c d100 0bc0
00000130: 81c7 4b3f bb4e 4cbe 70e9 7b3f a667 b53e
00000140: 5f9a 933d 6045 6a3f 05b7 fbbe dfd5 70bf
00000150: ec49 48be ce3b 783f f65c 83bf f38e 4abf
00000160: eba9 0bbd e278 2cbf 9c82 023f d855 763e
00000170: ebc9 3e3d f694 523e 61d4 20bf c2db 69be
00000180: d980 16bf 4361 06bf 3c7a 29be 9b61 5b3e
00000190: a6b6 8abe 7680 4f40 045d f73d f225 bb3e
000001a0: 45ac 843e b90a 363f 3560 843e 7094 67bf
000001b0: 22ab 14bf eb5d 29bf 2ba9 98bf c455 763e
000001c0: fa8a 5dbf 0cb9 3d40 eb09 ffbd 9443 d9be
000001d0: ea03 583e 5ed2 893f 8753 8d3f 650e 95bf
000001e0: 5da5 853c 7161 913f b914 653d 7b9e e1be
000001f0: 7e27 11bf c6e9 66bf 22ce 80bf 0b9c 4b3f
00000200: 60f4 6d3f a1be 0f3e 5d48 2bbf c3d3 b5be
00000210: a0cc 89be a64e d5be dc2f 6dbf ade8 68bf
00000220: 94c5 9d3f b0ac c33f 517c 043f 9776 ecbe
00000230: 9f5d d2be c6b9 6fbe fec7 613f b9a2 80bf
00000240: e588 8e3e cc18 78bf 6d5d 583f 0c3b f2be
00000250: da37 b13e 0adf b2bd 414a 6c3e ed35 733e
00000260: 7672 48c0 a089 36bf 0fbf ca3f 3cf7 32bf
00000270: 267a 173f 70f3 9c3b e65a 0a3f 9253 68be
00000280: c6e2 473e 72db f0bd ac57 79bf 90d3 9e3d
00000290: 0431 f2bd bcf7 593f a3e9 56bf 9da3 213f
000002a0: 4a48 edbe 9901 1cbf 1c9b 4c3f 77bf 0fbf
000002b0: a864 f93e 8937 94bd b7b9 bebf 706b e1be
000002c0: 5990 1d3f 6057 ac3c 1be2 013f 948d 9e3d
000002d0: 2627 74bf fea5 44bf aac2 673f 4511 6c3e
000002e0: ad64 d1bd 8f87 c83e db1a d1be c369 f5be
000002f0: 9ba1 e23d 7d82 e73e 726e 4f3f 3063 fb3e
00000300: 40d6 903e 4175 f0bf 1011 5dc0 15f1 663e
00000310: 0739 9d3e 5f88 9c3f dc3d c73e e4e0 633f
00000320: cdcb abc0 ea81 443f 3d21 24c0 5b0b 1dbd
00000330: 1d1b 2a40 e718 5ebe 1bb0 2c3f b40f e3bd
00000340: 5fbf 01bf d625 29bd d61d e03e a170 5abf
00000350: fb81 203f ceb3 e4be e756 d5be f2d3 8abe
00000360: 65cf a8be 01c4 35bf b77c 15bf fe7a 8b3e
00000370: 5de7 25be c06b d23f e064 543e 65d9 5a3f
00000380: 74e5 ae3f 6eec 16be fb0c 9f3e 32a2 253f
00000390: 106c e5be 872f d43e e761 2e3e 2820 c0bf
000003a0: aa42 633f f5c3 00c0 5b15 9bbe 4276 3bc0
000003b0: ce28 1440 eca5 853d b474 a43f a755 47bb
000003c0: 15b8 f03f d6be d3bf 9bd7 90be cabf 853f
000003d0: b14d 24bf 2053 1cbf 7d23 3abf d124 d8be
000003e0: 6377 93bf aace f5be 5ed5 e5be 4a21 fdbd
000003f0: 0a65 a5be 74b5 e93f 4a13 95bf 9486 d8be

model.convs1.2.bias f4 [32]
0.13471352 -0.5879811 -0.019847352 1.9160458 1.7966883 -0.57607114 1.5891232 0.11110264
1.7337006 0.555349 1.0900879 1.2977173 1.0962389 -0.6820391 2.1803598 -0.34374315
0.98591197 -0.50294554 -0.26950097 0.022066897 0.14469457 -0.16569701 -0.33119088 -0.09668992
0.24723463 -0.30883333 0.6926034 2.3373559 -0.697503 1.6863848 -1.0251737 2.910198
00000000: 57f2 093e ee85 16bf ea96 a2bc fd40 f53f
00000010: e2f9 e53f 6679 13bf 6468 cb3f c889 e33d
00000020: e7e9 dd3f 5a2b 0e3f 0088 8b3f 9a1b a63f
00000030: 8e51 8c3f 1d9a 2ebf 048b 0b40 1aff afbe
00000040: ba64 7c3f 0ac1 00bf 08fc 89be a3c5 b43c
00000050: d02a 143e 7aac 29be da91 a9be 5d05 c6bd
00000060: 132b 7d3e 671f 9ebe 754e 313f 3d97 1540
00000070: 8e8f 32bf 75db d73f e438 83bf af40 3a40

model.convs1.3.weight f4 [32, 32]
-0.9666615 0.57881784 -1.1545982 -0.40760165 -0.04922718 0.22616796 0.1849784 0.22823568
0.5566694 0.20094562 0.3794813 -0.481455 1.7410419 -0.5823505 1.5565268 1.3979988
0.03378916 0.48503676 1.1293852 0.07721514 0.4680537 -0.2862503 -0.511542 -1.1931108
1.0809785 -0.07090375 -0.7965072 -1.3639925 -0.72533804 0.77610385 -0.28003815 -0.32982746
0.32775232 -0.38574317 -0.14566214 0.029182995 -0.040139496 -0.04129862 -1.0981561 -0.23335871
0.8067934 0.52163 0.18446831 0.9622429 0.83638674 -2.5270882 0.8420077 -1.0840554
-0.5017431 -0.51194185 -0.67486864 -0.091066964 1.3444369 -0.1353507 2.4942806 -0.0030457294
-0.11492644 1.5032203 -0.8220563 -0.5821881 0.62502295 -0.30769366 -0.37187868 -2.1286373
-0.74476475 -0.17922825 -0.30526122 1.9629147 -0.566138 0.2866217 3.662004 0.04309408
-1.1870581 0.56892765 0.134136 0.8628044 0.7927517 -0.8575359 0.80723107 0.25822398
-1.3685124 -0.75446844 -0.46740702 -0.22850062 0.06411665 -0.45296758 -0.31160605 -0.42889884
0.28017074 -0.26483673 -0.20847589 -1.2152989 -0.57007164 1.1843417 -2.6799169 1.0334867
-0.46924362 0.3712625 0.81061774 -0.6614515 -0.4915113 1.4671947 -1.5534927 -3.4880881
-1.0840586 -0.1380611 0.46382383 2.6918764 -2.0511153 -0.23724845 -2.1315517 0.7212889
-0.7485675 -0.85991484 1.0390137 -0.7010294 0.20106772 -1.6174315 2.1212986 -1.66108
1.0537893 -1.2936857 -0.65160716 2.1575031 -0.18431303 -1.835191 -1.4223291 3.7493718
-2.6350207 0.20018207 0.31842592 -1.1834519 0.40326828 0.14606884 1.3591751 0.34084034
1.7597057 4.142972 -1.4315777 0.20929839 -2.8002446 0.15269351 -0.10719172 0.94115955
-0.16868454 1.8872418 1.288898 1.9485685 1.1421611 -0.4643505 0.60015 0.8940631
0.4096654 -0.15523912 -1.1664538 0.9363355 -0.61400044 0.8627913 1.1911359 0.34514427
-1.3791883 -0.47368902 0.44129983 -0.42749634 -0.24113292 -0.42652267 -1.2291521 -0.010652264
1.2955441 -0.15642044 1.315445 -0.49827218 0.070840254 0.0052043125 1.7264427 0.00987352
-0.57929444 0.10665493 -1.696549 -1.7678459 -1.2066969 0.0035975056 -1.433796 -0.5939503
-1.0430455 0.9288941 -1.1722887 -0.37859824 2.3671236 -0.5255441 -0.74185616 0.17548957
0.19454071 0.35926896 -0.23239958 1.7959498 0.9144359 -0.37557665 0.045424476 0.22219269
0.44464558 0.50004005 0.42493 0.61467373 -0.24732676 -0.10591546 -0.90861017 -0.09542912
-0.20422214 -0.027270757 0.31611297 0.75881934 0.87060755 0.038942695 0.9729311 -0.16754156
-0.47975117 -0.5963716 -0.5396613 0.5901977 0.14547567 -0.25221866 -0.664126 -1.1541579
-0.08931342 -2.2077904 0.34747505 0.66372687 -0.15760016 -1.2991698 0.82850516 1.3438653
1.0029293 0.24229106 -0.7706164 -0.33928788 -0.30765712 0.30591887 0.81771594 -0.09133614
1.1288855 0.45011914 0.34462926 0.9200725 -2.4063127 1.0396472 -0.17232098 0.05662049
-0.49097872 -1.9418869 1.1486928 -2.155736 -0.5141549 -0.51859856 -0.021312032 0.95286673
00000000: 2177 77bf 682d 143f e0c9 93bf 2ab1 d0be
00000010: 71a2 49bd 9398 673e fa6a 3d3e 9db6 693e
00000020: e381 0e3f b0c4 4d3e 5f4b c23e 4581 f6be
00000030: 76da de3f ec14 15bf 453c c73f a0f1 b23f
00000040: 8166 0a3d bd56 f83e b28f 903f f922 9e3d
00000050: bca4 ef3e 668f 92be 6bf4 02bf dbb7 98bf
00000060: 815d 8a3f fc35 91bd e5e7 4bbf 4e97 aebf
00000070: c1af 39bf beae 463f 2961 8fbe 25df a8be
00000080: 27cf a73e 2180 c5be 7528 15be 2d11 ef3c
00000090: 5069 24bd be28 29bd 6190 8cbf 96f5 6ebe
000000a0: 038a 4e3f 8b89 053f 43e5 3c3e 8d55 763f
000000b0: 711d 563f d0bb 21c0 d18d 573f 54c2 8abf
000000c0: 3c72 00bf 9f0e 03bf 31c4 2cbf 5181 babd
000000d0: 8216 ac3f 6099 0abe 4ba2 1f40 dc9a 47bb
000000e0: 8e5e ebbd 8669 c03f 4872 52bf 480a 15bf
000000f0: 8101 203f 068a 9dbe e266 bebe 983b 08c0
00000100: e7a8 3ebf 9c87 37be 334b 9cbe ca40 fb3f
00000110: 6cee 10bf 14c0 923e 465e 6a40 6b83 303d
00000120: 85f1 97bf 3ea5 113f f35a 093e c0e0 5c3f
00000130: c7f1 4a3f 7987 5bbf b2a6 4e3f ef35 843e
00000140: 6a2b afbf d824 41bf f94f efbe 11fc 69be
00000150: 974f 833d 5eeb e7be d48a 9fbe a198 dbbe
00000160: 8a72 8f3e ae98 87be b47a 55be ea8e 9bbf
00000170: 37f0 11bf 8298 973f c283 2bc0 4b49 843f
00000180: b340 f0be 1e16 be3e a584 4f3f e354 29bf
00000190: 5ea7 fbbe 09cd bb3f d9d8 c6bf d63c 5fc0
000001a0: 6fc2 8abf e45f 0dbe 517a ed3e b447 2c40
000001b0: 7945 03c0 42f1 72be 586b 08c0 64a6 383f
000001c0: 1fa2 3fbf 6123 5cbf 67fe 843f aa76 33bf
000001d0: b2e4 4d3e ff07 cfbf 5bc3 0740 459e d4bf
000001e0: 91e2 863f 7e97 a5bf bacf 26bf 8814 0a40
000001f0: 8ebc 3cbe 8ae7 eabf e10e b6bf b5f5 6f40
00000200: 2ea4 28c0 87fc 4c3e b908 a33e 5a7b 97bf
00000210: 2e79 ce3e 1293 153e 73f9 ad3f a082 ae3e
00000220: 093e e13f 3a93 8440 f03d b7bf 5152 563e
00000230: 3537 33c0 b05b 1c3e 5587 dbbd d5ef 703f
00000240: a4bb 2cbe 2491 f13f 9cfa a43f b16a f93f
00000250: 5632 923f 59bf edbe 6ea3 193f 52e1 643f
00000260: aabf d13e 01f7 1ebe 5c4e 95bf afb3 6f3f
00000270: 222f 1dbf e4df 5c3f 2477 983f c0b6 b03e
00000280: 3e89 b0bf 5e87 f2be 0df2 e13e cde0 dabe
00000290: 8ceb 76be 2e61 dabe db54 9dbf d586 2ebc
000002a0: 64d4 a53f ae2c 20be 8060 a83f 881d ffbe
000002b0: b214 913d f088 aa3b 13fc dc3f 8bc4 213c
000002c0: a44c 14bf e66d da3d 8528 d9bf c648 e2bf
000002d0: 0b75 9abf 21c4 6b3b a186 b7bf 200d 18bf
000002e0: 8482 85bf 01cc 6d3f 8e0d 96bf a1d7 c1be
000002f0: f47e 1740 0f8a 06bf 49ea 3dbf 8ab3 333e
00000300: ae35 473e 1af2 b73e 28fa 6dbe afe1 e53f
00000310: 7918 6a3f 954b c0be 040f 3a3d 7b86 633e
00000320: 96a8 e33e a002 003f 6d90 d93e 425b 1d3f
00000330: 3a43 7dbe 34ea d8bd ad9a 68bf 5870 c3bd
00000340: 9c1f 51be ec66 dfbc 8fd9 a13e fc41 423f
00000350: 23e0 5e3f 6082 1f3d 0312 793f 0490 2bbe
00000360: f2a1 f5be cfab 18bf 3e27 0abf 3217 173f
00000370: 93f7 143e ce22 81be 2904 2abf 72bb 93bf
00000380: f4e9 b6bd 704c 0dc0 40e8 b13e 01ea 293f
00000390: f061 21be 324b a6bf ea18 543f c703 ac3f
000003a0: fd5f 803f 261b 783e 1e47 45bf 24b7 adbe
000003b0: 3c85 9dbe 66a1 9c3e d555 513f 710e bbbd
000003c0: 527f 903f 0476 e63e 3f73 b03e df89 6b3f
000003d0: 0701 1ac0 2913 853f e974 30be e3ea 673d
000003e0: 9061 fbbe c08f f8bf 5e08 933f 94f7 09c0
000003f0: a89f 03bf e0c2 04bf 9296 aebc 13ef 733f

model.convs1.3.bias f4 [32]
0.10943202 -0.03677876 2.853632 1.437002 -1.0949483 1.1306044 1.1027768 0.10949477
-0.6565462 -0.2564153 -1.2882913 -0.2654611 -0.46693608 0.09473407 2.0458484 1.9775741
-0.6145523 1.0693117 0.15740536 -0.632889 0.49646482 1.019873 -0.36639673 0.56160545
0.31352022 0.75886 0.32841855 0.2732986 2.0106483 -0.5488591 -0.0416249 -0.3819682
00000000: e51d e03d 53a5 16bd e8a1 3640 aeef b73f
00000010: 4427 8cbf a5b7 903f ca27 8d3f cb3e e03d
00000020: 6913 28bf de48 83be bbe6 a4bf 84ea 87be
00000030: 3f12 efbe f003 c23d 2eef 0240 2621 fd3f
00000040: 4d53 1dbf 35df 883f df2e 213e 0305 22bf
00000050: a330 fe3e 338b 823f 5a98 bbbe 60c5 0f3f
00000060: b985 a03e a644 423f 7a26 a83e cbed 8b3e
00000070: 76ae 0040 0882 0cbf df7e 2abd 5691 c3be

model.convs1.4.weight f4 [16, 32]
1.2051651 0.86352694 -0.26706585 0.3340504 0.91296226 0.34544113 -0.9329239 -1.2158337
0.64572406 -0.78250706 -0.6611982 -0.8824957 1.5696185 -1.5803362 -1.2856594 0.45577154
1.3450079 0.621003 -0.14954707 0.44651043 -0.5228818 0.67976105 0.410639 -0.71316177
-0.38970557 -0.5639104 0.1348009 0.57232046 0.03838854 -0.42030314 -2.0758607 0.27062058
0.5532338 -0.32832518 -0.30046985 0.408443 0.04766628 0.18573554 -1.1426455 0.065255895
-0.82686365 0.08603751 -1.0323429 -0.5766595 0.5115677 -1.2768135 0.29614246 -0.550116
-0.042275533 0.22223869 0.06329309 -0.38304922 -0.24865292 -0.57135886 0.54574364 -0.14755683
-0.43043277 0.06565297 -0.55768746 0.59235626 1.0833074 -0.47941118 -0.08052744 -0.5079009
1.3995281 2.078677 -0.60960704 0.0005795639 -0.31644908 1.9322221 -1.4961497 -0.3967132
-0.1206293 2.3285704 -0.61126894 0.6728833 -0.44105148 0.2491409 -0.44499925 0.061826006
-0.18748264 -0.838616 0.12897255 -1.0401138 -0.42758596 -0.12385304 -0.054015774 -0.42584807
-0.3889505 0.601273 -0.7206884 1.3093206 0.41353577 0.3314354 -0.1136379 -0.0064514778
0.54824567 2.714958 0.27122927 0.817365 0.61990756 -0.8664088 -2.0000317 0.60161555
-0.2501286 -0.22248201 0.06991823 0.40238506 -0.5739501 -1.0126917 0.3367672 0.9520231
2.5247738 0.34641755 0.21313925 0.098612346 -0.39743203 0.33842292 -0.21387169 1.1733422
0.24282412 -0.31621292 0.5174341 -2.067784 -0.32788378 -1.1835972 0.2993355 -1.757954
-0.270754 0.20818812 0.022988357 -0.94477546 0.09808886 0.57432747 1.0813686 0.15779157
-0.8287939 -1.14356 0.08996076 -0.1694044 0.4439385 0.11604148 -0.14514129 -1.3416591
1.5841486 0.9067135 -1.2641836 1.178767 0.7945199 -0.28668013 -0.2297646 -1.4627497
0.09796046 -0.28736487 -0.14297019 0.108125515 0.7777777 1.0748197 0.5452087 -1.0111375
2.3890326 4.0484085 0.86733305 1.6480924 4.1473117 -2.100843 0.07536036 2.3556218
-0.17548881 0.6685436 1.0890667 4.0757794 6.447051 2.2130923 2.118625 1.7289852
0.38207716 -0.8319392 -3.6389754 1.5502918 -2.3189876 2.2260296 -0.43867654 0.41108447
1.223724 1.3131962 5.266077 -3.0926332 1.7127163 1.9611071 0.53147423 -0.5578177
-0.38766512 0.49254665 2.3965242 0.8658162 -0.52387065 0.40816543 0.017430486 -1.8854481
-0.9775924 -1.3634596 -3.4951184 0.08586815 -1.7572067 -0.8304911 1.8692153 2.3412912
-0.9918744 -0.61342657 -0.24940553 -1.6662067 -0.24431841 0.7435859 -0.94883174 0.5837718
0.18227217 -0.59353685 -1.2757165 -1.4199308 2.3093812 -1.0130633 0.17581855 0.16658911
-0.89788353 -0.53408515 -1.7881155 1.8756379 0.73094666 -1.9920627 -1.9174813 -1.2501328
2.0587096 -0.4713401 -1.1830096 0.34227344 -1.7225223 -1.9325869 -0.2949153 2.0608191
0.046455592 0.09560655 3.2438226 -0.2486264 -0.3137508 -2.3473828 1.0793251 2.6469588
0.19673449 -2.9256384 0.32055953 0.97882384 0.24544032 2.9460695 0.43522838 2.9535954
00000000: da42 9a3f 1a10 5d3f dbbc 88be a708 ab3e
00000010: e5b7 693f a9dd b03e 1ad4 6ebf 70a0 9bbf
00000020: 2c4e 253f 6252 48bf 4944 29bf 3deb 61bf
00000030: 42e9 c83f 7548 cabf 7d90 a4bf e35a e93e
00000040: 3829 ac3f 0dfa 1e3f de22 19be 049d e43e
00000050: 95db 05bf d204 2e3f 463f d23e c591 36bf
00000060: 7d87 c7be 6f5c 10bf 3f09 0a3e 9883 123f
00000070: 4d3d 1d3d f931 d7be e7da 04c0 c88e 8a3e
00000080: bba0 0d3f 3d1a a8be 2fd7 99be 711f d13e
00000090: b83d 433d 7531 3e3e 3542 92bf e2a4 853d
000000a0: 56ad 53bf 6f34 b03d d023 84bf f59f 13bf
000000b0: 1af6 023f a06e a3bf fc9f 973e 67d4 0cbf
000000c0: 1c29 2dbd 8a92 633e cf9f 813d 071f c4be
000000d0: df9e 7ebe 9344 12bf dbb5 0b3f 2319 17be
000000e0: af61 dcbe 1075 863d 9bc4 0ebf a9a4 173f
000000f0: d1a9 8a3f 6275 f5be 92eb a4bd cb05 02bf
00000100: bd23 b33f 0b09 0540 350f 1cbf e0ed 173a
00000110: 9d05 a2be 0e53 f73f d581 bfbf fe1d cbbe
00000120: 7f0c f7bd 4c07 1540 1f7c 1cbf 1442 2c3f
00000130: 80d1 e1be cb1e 7f3e f1d6 e3be 443d 7d3d
00000140: 73fb 3fbe 8aaf 56bf 6111 043e 7322 85bf
00000150: 8cec dabe aaa6 fdbd a53f 5dbd c208 dabe
00000160: 8524 c7be 07ed 193f 097f 38bf d197 a73f
00000170: f6ba d33e e7b1 a93e fdba e8bd eb66 d3bb
00000180: d459 0c3f dfc1 2d40 90de 8a3e d53e 513f
00000190: 43b2 1e3f f8cc 5dbf 8500 00c0 7a03 1a3f
000001a0: db10 80be 53d2 63be 4a31 8f3d 6a05 ce3e
000001b0: 65ee 12bf e29f 81bf c06c ac3e c9b7 733f
000001c0: e595 2140 a45d b13e 2d41 5a3e 45f5 c93d
000001d0: 367c cbbe c545 ad3e 2e01 5bbe 1430 963f
000001e0: e3a6 783e a9e6 a1be 9076 043f 9356 04c0
000001f0: 62e0 a7be 1d80 97bf 8142 993e a304 e1bf
00000200: 45a0 8abe 442f 553e 1452 bc3c cedc 71bf
00000210: d0e2 c83d 2007 133f 496a 8a3f 1d94 213e
00000220: d62b 54bf 2d60 92bf 593d b83d 5978 2dbe
00000230: e84b e33e 28a7 ed3d eb9f 14be 7cbb abbf
00000240: 62c5 ca3f 601e 683f c5d0 a1bf d6e1 963f
00000250: a865 4b3f bdc7 92be 6947 6bbe 623b bbbf
00000260: 7e9f c83d 7d21 93be c766 12be e970 dd3d
00000270: 701c 473f b193 893f cc92 0b3f f46c 81bf
00000280: e9e5 1840 908c 8140 8a09 5e3f b1f4 d23f
00000290: c7b6 8440 3674 06c0 8856 9a3d 82c2 1640
000002a0: 57b3 33be ac25 2b3f 8a66 8b3f c96c 8240
000002b0: 3e4e ce40 4ea3 0d40 8d97 0740 634f dd3f
000002c0: 9e9f c33e f8f9 54bf f9e4 68c0 f66f c63f
000002d0: 4b6a 14c0 4577 0e40 369a e0be aa79 d23e
000002e0: fda2 9c3f d016 a83f b483 a840 b4ed 45c0
000002f0: 4a3a db3f 8f05 fb3f b20e 083f 24cd 0ebf
00000300: 0b7c c6be 132f fc3e a760 1940 21a6 5d3f
00000310: 631c 06bf 0ffb d03e 61ca 8e3c 5d56 f1bf
00000320: 7f43 7abf d885 aebf 05b0 5fc0 a4db af3d
00000330: 26ec e0bf 119b 54bf 7242 ef3f b7d7 1540
00000340: 7beb 7dbf 8609 1dbf 2a64 7fbe 4346 d5bf
00000350: 9b2e 7abe a55b 3e3f a3e6 72bf 1272 153f
00000360: 8ea5 3a3e 08f2 17bf ae4a a3bf 4bc0 b5bf
00000370: e7cc 1340 0fac 81bf c709 343e 5696 2a3e
00000380: b2db 65bf ceb9 08bf f8e0 e4bf e714 f03f
00000390: 521f 3b3f e9fb febf 0770 f5bf 5a04 a0bf
000003a0: e6c1 0340 7d53 f1be dc6c 97bf 773e af3e
000003b0: 9c7b dcbf 025f f7bf 23ff 96be 76e4 0340
000003c0: 3848 3e3d 5ecd c33d ca9a 4f40 eb97 7ebe
000003d0: f2a3 a0be 853b 16c0 5327 8a3f c667 2940
000003e0: c474 493e a93d 3bc0 6120 a43e 3394 7a3f
000003f0: b554 7b3e 678c 3c40 41d6 de3e b507 3d40

model.convs1.4.bias f4 [16]
-0.19144142 0.60378104 0.28918463 0.20890714 -0.20440117 -1.5245398 2.829018 0.84948915
1.2709248 0.31418994 -0.2811231 1.0066236 0.42482358 -0.69780564 -1.046566 1.0250494
00000000: 3809 44be 6591 1a3f 0210 943e c1eb 553e
00000010: 8a4e 51be 1f24 c3bf a20e 3540 1f78 593f
00000020: aaad a23f 81dd a03e 5eef 8fbe 0bd9 803f
00000030: 7a82 d93e 64a3 32bf e0f5 85bf d234 833f

model.convs1.5.weight f4 [16, 16]
-1.6020131 0.38889235 -0.20956361 3.8421607 -2.8362744 -8.06976 -0.55696213 3.222129
-2.1297832 3.3920796 -0.77393615 -1.5012281 -4.335738 -0.26723322 2.2606883 0.3880997
0.21547839 -0.36561123 0.10080063 -0.2613958 -0.6550801 -1.189003 -0.023314668 -0.5050636
-0.6872443 0.14992528 -1.1842575 2.8016417 -0.18225367 0.02016375 0.43604606 0.3950344
-1.0001765 0.3781671 1.0900887 -1.9599981 0.009989056 -0.37716025 0.0531571 -1.0264903
1.6283003 0.48970544 -0.0012990024 0.23881255 0.9268766 0.016336797 1.3390317 0.30769476
-0.05180056 0.86777526 1.5240304 1.5183859 0.5235713 3.2260308 -0.77276963 1.061656
3.0683246 0.81868017 -0.55430204 2.3429391 0.9578031 1.9269482 2.2796648 0.6096348
-0.15385203 0.001396519 -0.012463832 -0.16795902 0.026459925 0.009698737 -0.09096463 0.07316356
0.116350666 -0.11639975 0.2223628 -0.12673356 0.12547895 0.19431768 0.2854948 -0.20445816
0.9927519 0.31519866 0.9372521 4.35748 0.6904903 -1.327673 -0.46769455 0.40875357
1.4551904 1.3147897 -2.1046066 0.6581924 0.56927556 -0.91781235 1.4650186 -0.025959382
1.2349125 -0.85165197 -0.42341554 -1.1133988 -0.51435685 0.55088013 0.60207784 1.0544233
-1.3556235 -0.44514033 0.13102816 -1.4612793 -0.90866596 -0.79624766 -1.6745245 0.7742633
-1.1581393 2.2982605 -0.43704996 -0.20654584 -2.4026828 -0.55360776 2.1828659 -0.8450197
-0.12670343 -0.5227618 -2.0611234 0.46576586 2.126183 -1.6927623 -0.3449165 0.031729154
-0.59322244 -2.8710759 -0.7026205 -0.36058313 0.9889055 -4.227012 -0.42241263 -0.63014627
-1.1650596 -0.15556712 2.1153235 -1.0127451 -0.86476517 -0.42893308 -1.4277349 0.14660893
0.07813346 -0.1214893 0.0734738 0.27852443 0.15889011 0.20270374 -0.042900946 0.12862217
0.0650279 -0.051869858 -0.0035462237 0.043888878 0.06834122 -0.14510322 0.108540714 0.1150525
0.15468399 0.1911729 -0.07623518 0.22100827 -0.024616133 0.19328895 -0.29696193 -0.37774074
-1.0099266 0.25152892 0.104193375 0.5317904 0.1535438 -1.8294162 2.7563267 -0.2725977
0.8438348 0.38047272 0.09475504 0.33307174 0.11223355 1.97067 -0.44629648 -0.28460097
1.9848163 0.044455066 1.2095873 -0.49777701 0.6684741 0.024687724 1.0919532 0.042270135
0.4504063 -0.42301792 -0.25192744 0.9381361 -1.2557069 -2.3619142 0.6607685 0.39200768
1.5217518 0.2893985 -2.0142772 -0.45718738 -1.3106215 -0.29185313 -0.8379654 0.6365187
0.044274148 0.7224027 0.577273 0.977653 0.6950353 2.3915083 -0.10540154 0.19297071
1.4930688 0.10275125 1.0918671 -0.25994825 0.40263766 -0.15263239 0.7305993 0.28596988
-0.37724474 -1.1465964 -1.262319 -0.26959366 0.40585357 -0.4140088 1.1972613 -2.430993
0.84779793 -1.1152124 -0.9977974 0.3430203 1.3741529 -0.47854736 0.13682342 3.144428
-0.2566999 -1.4178821 1.9311204 -0.5522642 1.1586332 -0.39547798 0.475978 -1.3339798
-0.76890045 -0.25973952 -2.1445389 -0.9113707 0.486744 -1.0002451 0.29761684 1.3375025
00000000: c40e cdbf e61c c73e d897 56be f6e5 7540
00000010: 8585 35c0 bd1d 01c1 1295 0ebf 5d37 4e40
00000020: 5e4e 08c0 d517 5940 ae20 46bf 3e28 c0bf
00000030: 5ebe 8ac0 cbd2 88be 1eaf 1040 01b5 c63e
00000040: 5ea6 5c3e 6531 bbbe 9070 ce3d acd5 85be
00000050: 54b3 27bf 4031 98bf 67fe bebc d94b 01bf
00000060: 3eef 2fbf 0386 193e c095 97bf 194e 3340
00000070: b5a0 3abe 732e a53c 6e41 df3e f341 ca3e
00000080: c905 80bf 1e9f c13e 0788 8b3f 38e1 fabf
00000090: 23a9 233c 261b c1be 42bb 593d 0964 83bf
000000a0: 256c d03f acba fa3e 4a43 aaba 478b 743e
000000b0: c947 6d3f bfd4 853c 6465 ab3f 2b8a 9d3e
000000c0: d32c 54bd 8526 5e3f 6e13 c33f 785a c23f
000000d0: c508 063f 4a77 4e40 3bd4 45bf 58e4 873f
000000e0: 6e5f 4440 0695 513f bde6 0dbf b7f2 1540
000000f0: 9532 753f 3da6 f63f 07e6 1140 0711 1c3f
00000100: 638b 1dbe 670b b73a 1a35 4cbc 73fd 2bbe
00000110: 7cc2 d83c 74e7 1e3c aa4b babd c7d6 953d
00000120: 4249 ee3d fe62 eebd 13b3 633e 71c6 01be
00000130: 8e7d 003e 37fb 463e 602c 923e 7b5d 51be
00000140: fd24 7e3f b861 a13e c1ef 6f3f 7a70 8b40
00000150: f9c3 303f 30f1 a9bf a975 efbe 2648 d13e
00000160: ae43 ba3f 074b a83f e0b1 06c0 4c7f 283f
00000170: 0bbc 113f c0f5 6abf bb85 bb3f c5a8 d4bc
00000180: 9d11 9e3f dd05 5abf ecc9 d8be da83 8ebf
00000190: e4ac 03bf 7b06 0d3f c621 1a3f 58f7 863f
000001a0: 1285 adbf 6fe9 e3be 3f2c 063e 330b bbbf
000001b0: 559e 68bf e3d6 4bbf d256 d6bf 1f36 463f
000001c0: e93d 94bf b316 1340 03c5 dfbe c180 53be
000001d0: 8ec5 19c0 3db9 0dbf 13b4 0b40 3653 58bf
000001e0: 8bbe 01be b8d3 05bf 72e9 03c0 dd78 ee3e
000001f0: 6213 0840 6fac d8bf e598 b0be 6ef6 013d
00000200: 6ddd 17bf b5bf 37c0 f0de 33bf 5a9e b8be
00000210: e928 7d3f af43 87c0 7846 d8be 4451 21bf
00000220: ac20 95bf fd4c 1fbe 7661 0740 a2a1 81bf
00000230: 4061 5dbf 1e9d dbbe 04c0 b6bf a720 163e
00000240: 6f04 a03d 62cf f8bd 6f79 963d c19a 8e3e
00000250: 17b4 223e 9291 4f3e e7b8 2fbd 88b5 033e
00000260: 592d 853d 7d75 54bd c367 68bb d3c4 333d
00000270: 7bf6 8b3d f095 14be 984a de3d a5a0 eb3d
00000280: 7b65 1e3e d4c2 433e 3121 9cbd fe4f 623e
00000290: c6a7 c9bc 8aed 453e 650b 98be 3c67 c1be
000002a0: 4645 81bf 66c8 803e 5663 d53d 6a23 083f
000002b0: 963a 1d3e 4f2a eabf a867 3040 ed91 8bbe
000002c0: 8f05 583f 52cd c23e ee0e c23d 6188 aa3e
000002d0: b4da e53d ea3e fc3f f980 e4be 38b7 91be
000002e0: 760e fe3f 8416 363d c2d3 9a3f a1dc febe
000002f0: 1e21 2b3f e93d ca3c 1fc5 8b3f 7323 2d3d
00000300: a89b e63e ce95 d8be a2fc 80be b029 703f
00000310: 01bb a0bf 9a29 17c0 2028 293f 3bb5 c83e
00000320: c3c8 c23f 0a2c 943e ebe9 00c0 7714 eabe
00000330: 72c2 a7bf c66d 95be e784 56bf e4f2 223f
00000340: cf58 353d 62ef 383f 2ac8 133f 7847 7a3f
00000350: d5ed 313f 790e 1940 c3dc d7bd 1d9a 453e
00000360: e11c bf3f 3f6f d23d 4dc2 8b3f f017 85be
00000370: 8626 ce3e aa4b 1cbe 8e08 3b3f a56a 923e
00000380: 3926 c1be acc3 92bf ab93 a1bf 2e08 8abe
00000390: 0acc cf3e f6f8 d3be dc3f 993f 6495 1bc0
000003a0: 4909 593f 48bf 8ebf a76f 7fbf 5ba0 af3e
000003b0: 3ee4 af3f 2904 f5be 701b 0c3e 4f3e 4940
000003c0: 2b6e 83be 297d b5bf f42e f73f 3061 0dbf
000003d0: 184e 943f 177c cabe 63b3 f33e dabf aabf
000003e0: a9d6 44bf 94fc 84be 2040 09c0 974f 69bf
000003f0: 8236 f93e 0808 80bf 3c61 983e 4833 ab3f

model.convs1.5.bias f4 [16]
0.44100404 0.4812347 0.5954005 -0.14200608 -0.16147843 -1.1834524 1.2766625 1.9341639
-0.8282435 -0.19490403 0.4843729 -0.007032143 0.392895 -0.34805372 0.8427227 0.4217703
00000000: 48cb e13e 6564 f63e 2b6c 183f 0b6a 11be
00000010: 9a5a 25be 5e7b 97bf ad69 a33f af92 f73f
00000020: c407 54bf ec94 47be baff f73e e46d e6bb
00000030: 8929 c93e 1934 b2be adbc 573f 47f2 d73e

model.convs2.0.weight f4 [16, 4]
1.1343802 -0.19783844 -0.32661265 -0.15185626 -2.4066494 0.066670716 3.2245717 0.12612814
1.8922297 0.028912203 -0.099118635 0.09728816 1.9666121 -0.046240546 -1.1405603 0.04974945
1.8899508 0.00818624 0.78973234 -0.014046384 3.1377723 -0.0577974 0.48196322 0.041367937
-0.074606284 0.06236759 -0.8968292 0.06853112 -2.174488 0.11847459 3.0264304 0.07290339
0.68164855 0.0023053032 0.72981656 0.025248112 -0.8648043 -0.18056887 1.5003382 -0.21758585
-0.28202742 0.038890656 0.4478578 -0.14910892 0.4535264 0.031937018 1.1443285 0.047342632
-0.06820648 -0.2111109 0.11973963 -0.18832125 -0.69625956 0.07535689 0.22239785 0.089756615
-2.967829 0.18952328 -0.52275896 0.11258447 -0.829106 -0.009262633 1.1365079 -0.019443797
00000000: 5f33 913f 2996 4abe c639 a7be 3580 1bbe
00000010: 8b06 1ac0 a88a 883d 625f 4e40 bc27 013e
00000020: 9534 f23f 49d9 ec3c b6fe cabd 043f c73d
00000030: f2b9 fb3f ba66 3dbd e1fd 91bf 14c6 4b3d
00000040: e8e9 f13f 941f 063c e62b 4a3f ce22 66bc
00000050: 43d1 4840 f7bc 6cbd e2c3 f63e 6d71 293d
00000060: 2ecb 98bd 2875 7f3d 9996 65bf 0b5a 8c3d
00000070: d02a 0bc0 cea2 f23d 09b1 4140 5f4e 953d
00000080: 8580 2e3f 9214 173b 42d5 3a3f 21d5 ce3c
00000090: d163 5dbf 0ce7 38be 150b c03f d3ce 5ebe
000000a0: e665 90be cf4b 1f3d 9e4d e53e 02b0 18be
000000b0: 9d34 e83e 64d0 023d 5b79 923f 59ea 413d
000000c0: d7af 8bbd 752d 58be 0d3a f53d 49d7 40be
000000d0: 113e 32bf b754 9a3d 43bc 633e 51d2 b73d
000000e0: e9f0 3dc0 6412 423e 88d3 05bf b092 e63d
000000f0: 4a40 54bf 4cc2 17bc 1779 913f 9948 9fbc

model.convs2.0.bias f4 [16]
2.1725547 0.27129063 1.0249039 -0.6737975 2.9617417 -0.747712 2.833881 1.6682203
2.978122 -1.9602083 0.4558411 -2.6326246 -0.009544305 0.3868023 0.5094201 0.38397843
00000000: 230b 0b40 9be6 8a3e 0d30 833f fe7d 2cbf
00000010: 2d8d 3d40 0e6a 3fbf 4e5e 3540 3e88 d53f
00000020: 8d99 3e40 1be8 fabf 0164 e93e ec7c 28c0
00000030: b75f 1cbc f30a c63e 5b69 023f d298 c43e

model.convs2.1.weight f4 [16, 16]
0.6177518 3.5227542 2.1051598 -2.2624917 0.68322694 1.019002 -0.3609906 -0.047365222
-0.22659872 1.4500837 -0.9389983 -0.9260827 -0.49445617 -0.35539407 -0.67056817 0.35875165
-0.67216 -0.113013186 -1.0562476 1.7618221 -0.08084945 -0.7237542 0.737101 -2.118434
0.84459966 -1.7283845 -0.2552022 -3.363459 -0.074195646 -0.26615223 -1.4996636 -0.24096948
-0.24813889 0.68835604 -1.2184827 1.4269184 0.041509066 0.8615163 -0.47401506 1.0558027
-0.10940901 -1.140599 3.9539056 1.8497349 -0.44143122 2.3075101 2.1776862 -1.4735516
-1.1504687 2.3818781 1.313704 -1.6741639 -0.1689691 4.7609463 0.7805579 -2.0564897
0.9399947 -2.5475874 -0.19266221 -2.8445299 -0.55631995 0.05288476 1.1913927 -0.38260284
0.9524787 1.7882264 4.899312 1.9334464 -0.3214229 -1.2361084 -0.7310248 2.7016175
-1.8339897 -1.5704682 -5.1360674 -1.9184306 -1.1990131 1.9723539 -0.82617456 4.138245
0.08306508 0.12731902 0.12445453 -1.1138743 0.64440566 -1.4816625 0.97899276 0.7055174
1.30216 0.50938153 0.67658246 -3.813285 1.6656525 0.7797569 0.7179405 0.67136097
0.5758626 2.3356543 -0.45624793 -2.645498 -0.17719744 -0.5337035 1.6225353 0.03796066
0.13295856 0.5834389 1.7785549 -0.4291334 0.50848806 -0.46278512 0.46914846 -0.82065505
0.067657344 2.2188754 -0.6057843 0.5149173 0.17911822 -0.5451843 0.4570005 -0.28431538
0.14512737 0.5915323 -1.8229625 1.8856227 0.37287945 1.3427088 1.1420151 2.0523949
0.50341266 -2.732774 -2.0391896 1.6613353 1.0314082 -1.207043 0.25394565 0.354515
0.99290335 2.7106166 -0.78712136 -0.41694403 -0.26495072 -0.6293628 -0.97789955 -0.07473461
0.46515352 2.5852053 -1.1557119 -2.2583504 -0.5325731 -0.19750604 1.5139958 0.530097
-0.06527576 0.06726323 1.9115734 0.07710042 -0.5768736 -0.1379703 0.4761914 -0.97945225
-0.06612453 0.20344242 -0.7968921 -1.3017728 -0.26441208 -0.8302045 0.20481835 0.09373501
-0.004836073 -3.856058 3.0929768 -2.2857354 -0.36056706 1.4283847 0.9570111 -1.5819588
-0.1875041 -0.24784687 0.09773789 0.204061 -0.2965387 0.14906822 0.14737666 -0.0184372
-0.15168081 0.26607144 0.10989642 0.23373784 -0.11329003 0.19569616 -0.22711821 0.20500465
0.1609235 1.8788074 0.5929042 4.259641 0.9663018 0.97286516 -0.31914154 1.171296
0.39043355 1.4777889 -0.89371246 3.3296824 -2.9881952 1.2701695 1.3505473 2.1953595
-1.1938972 -0.40399793 -0.41208428 -2.1760323 0.7798105 -2.0961158 1.4594818 -1.5315639
2.141772 0.38906363 -1.258971 -2.5050497 0.19826561 -0.5874537 -0.7625073 0.04563955
0.77172047 -1.6998842 1.4472145 -0.67666906 1.7096062 0.08063592 -0.030388318 -0.07324455
1.0502412 0.7195686 -0.3316055 -0.94244426 -0.544762 0.7399609 -0.24623618 1.4236312
1.0464522 -4.585202 -1.8303248 -1.4365515 0.7009383 -5.3765984 0.9982716 1.0606405
0.57732344 0.24363098 1.3425395 0.12974663 1.421033 0.44100723 -0.22990584 0.30659223
00000000: fb24 1e3f ce74 6140 f0ba 0640 aacc 10c0
00000010: f6e7 2e3f a86e 823f c3d3 b8be 0902 42bd
00000020: 7f09 68be 589c b93f 3162 70bf c113 6dbf
00000030: 5c29 fdbe 36f6 b5be 5baa 2bbf 4cae b73e
00000040: ae12 2cbf 7573 e7bd 1f33 87bf 6383 e13f
00000050: 6594 a5bd f547 39bf a7b2 3c3f 6c94 07c0
00000060: af37 583f b43b ddbf dda9 82be ea42 57c0
00000070: e3f3 97bd 1b45 88be faf4 bfbf b4c0 76be
00000080: 1f18 7ebe 1a38 303f 3ef7 9bbf 43a5 b63f
00000090: 6905 2a3d 558c 5c3f 1ab2 f2be 8b24 873f
000000a0: d511 e0bd 26ff 91bf ca0c 7d40 1dc4 ec3f
000000b0: 4603 e2be 3fae 1340 365f 0b40 579d bcbf
000000c0: 8f42 93bf b170 1840 7427 a83f 014b d6bf
000000d0: 3c06 2dbe ac59 9840 a4d2 473f 879d 03c0
000000e0: 7ea3 703f ac0b 23c0 3e49 45be c70c 36c0
000000f0: fc6a 0ebf b19d 583d 8e7f 983f 85e4 c3be
00000100: a5d5 733f 9ae4 e43f 2ac7 9c40 2c7b f73f
00000110: 8b91 a4be cd38 9ebf 7124 3bbf 4de7 2c40
00000120: 2dc0 eabf 1a05 c9bf aa5a a4c0 228f f5bf
00000130: 4379 99bf 1876 fc3f 2d80 53bf 816c 8440
00000140: 061e aa3d eb5f 023e 04e2 fe3d 6f93 8ebf
00000150: c5f7 243f 1ea7 bdbf 459f 7a3f ca9c 343f
00000160: 2ead a63f d466 023f 8234 2d3f dd0c 74c0
00000170: 1a34 d53f 269e 473f f3ca 373f 50de 2b3f
00000180: bb6b 133f 5c7b 1540 5499 e9be d74f 29c0
00000190: 3f73 35be cba0 08bf 3daf cf3f a37c 1b3d
000001a0: 4a26 083e 405c 153f b0a7 e33f 5fb7 dbbe
000001b0: 462c 023f 2cf2 ecbe 3a34 f03e 7316 52bf
000001c0: ef8f 8a3d 0e02 0e40 ae14 1bbf 9fd1 033f
000001d0: c46a 373e 3391 0bbf f8fb e93e c991 91be
000001e0: 459c 143e a96e 173f d656 e9bf 165c f13f
000001f0: 0eea be3e e2dd ab3f 8d2d 923f 705a 0340
00000200: a7df 003f c5e5 2ec0 1582 02c0 a3a6 d43f
00000210: 2f05 843f 6380 9abf 2a05 823e fd82 b53e
00000220: ea2e 7e3f be7a 2d40 c980 49bf b079 d5be
00000230: 9fa7 87be ec1d 21bf a057 7abf 760e 99bd
00000240: 9a28 ee3e 0174 2540 5eee 93bf d088 10c0
00000250: b656 08bf 063f 4abe 9dca c13f 70b4 073f
00000260: 4caf 85bd 4ec1 893d 70ae f43f d3e6 9d3d
00000270: fdad 13bf 1648 0dbe 5ccf f33e 62bd 7abf
00000280: 4c6c 87bd 3653 503e 1f01 4cbf 7ea0 a6bf
00000290: 0561 87be 4888 54bf e7bb 513e 24f8 bf3d
000002a0: ec77 9ebb a7c9 76c0 55f3 4540 7d49 12c0
000002b0: 3f9c b8be 4fd5 b63f aefe 743f a07d cabf
000002c0: 1301 40be 92cb 7dbe ce2a c83d 5ef5 503e
000002d0: ecd3 97be 57a5 183e e8e9 163e 9c09 97bc
000002e0: 3752 1bbe 843a 883e 6011 e13d f958 6f3e
000002f0: 9a04 e8bd 9364 483e ad91 68be bdec 513e
00000300: 21c9 243e c37c f03f 92c8 173f fb4e 8840
00000310: 8e5f 773f b10d 793f 8566 a3be 07ed 953f
00000320: e8e6 c73e 3028 bd3f 57ca 64bf 8419 5540
00000330: 973e 3fc0 ea94 a23f bcde ac3f c580 0c40
00000340: a0d1 98bf d1d8 cebe b6fc d2be 1d44 0bc0
00000350: a9a1 473f c326 06c0 4dd0 ba3f 490a c4bf
00000360: cb12 0940 5933 c73e f625 a1bf bc52 20c0
00000370: 2406 4b3e 5e63 16bf ae33 43bf 89f0 3a3d
00000380: 798f 453f ce95 d9bf 533e b93f 2f3a 2dbf
00000390: 60d4 da3f 7224 a53d ecf0 f8bc 3d01 96bd
000003a0: 4e6e 863f a635 383f 32c8 a9be 0744 71bf
000003b0: 8675 0bbf 146e 3d3f 5625 7cbe 8c39 b63f
000003c0: 25f2 853f fab9 92c0 1548 eabf ebe0 b7bf
000003d0: b170 333f 180d acc0 ba8e 7f3f 11c3 873f
000003e0: 78cb 133f 667a 793e 56d8 ab3f 4ddc 043e
000003f0: 69e4 b53f b3cb e13e 706c 6bbe a8f9 9c3e

model.convs2.1.bias f4 [16]
0.42131582 -0.7616043 -0.5608472 0.6162809 0.39700207 1.6198288 0.7756642 0.45213228
0.92750925 0.48353174 0.653959 -0.0721322 3.3647308 -0.30262545 1.595298 -0.6384152
00000000: b5b6 d73e 80f8 42bf af93 0fbf 96c4 1d3f
00000010: db43 cb3e 8d56 cf3f ee91 463f e27d e73e
00000020: 3f71 6d3f 7991 f73e db69 273f 0cba 93bd
00000030: c057 5740 b9f1 9abe ba32 cc3f 2e6f 23bf

model.convs2.2.weight f4 [32, 16]
-1.1287959 3.1186876 4.354665 0.41802046 -1.8366256 1.4822137 -0.2679994 0.018417923
1.3096104 0.10160773 -4.177299 -2.5866601 0.9450912 -1.0832751 -0.37870842 -2.3305252
0.8003838 -1.586901 2.4506774 0.49538365 -1.1705649 2.1405163 1.769429 -0.13237377
-3.3591213 1.2666329 -5.389361 0.39723223 -2.6991982 -2.5995903 3.573031 2.2155616
-1.1222306 2.3346016 0.49882424 1.7140954 -0.60257024 0.6849083 -0.8830948 -2.8917482
-1.5041097 -1.2752897 -0.8742869 0.26753524 0.35651004 -1.075402 1.5657623 2.13288
1.9830513 -1.6121783 2.1974483 1.0067583 -0.47929674 -0.55869204 -1.2249049 -0.94543153
2.174831 -0.9964216 -1.7494919 0.32209855 1.199666 1.1329124 -0.62998027 -2.3385167
1.1977019 -1.1488577 -1.6647979 0.15139924 -0.71898043 -0.33788538 0.25704283 0.055348676
-1.6946198 -0.09834946 1.1179218 0.6791096 0.3723697 0.5674311 0.6457454 0.10579382
1.0883961 -3.3575609 -0.54716194 -0.5580861 1.4481436 0.85254836 0.78521293 0.90277493
-1.1393923 0.28820413 -0.7208037 -0.6275639 -0.73346764 -4.5171647 1.3500959 -1.2681127
-0.08454174 0.63300216 0.3311628 0.10192388 1.0534256 0.09497835 0.80064505 0.019498726
2.0456562 0.7052973 0.9565144 -1.2528503 0.15518169 0.32087943 -0.4557949 -0.7117946
2.1082187 -3.729782 -1.7160428 -0.7718511 -1.0845118 -0.56266564 0.19779605 -0.64681506
2.706616 0.48957494 3.4049675 -0.32971907 1.9068848 5.8033886 -0.8346173 -2.1026149
0.43358535 1.1227165 1.0419537 0.45430806 1.3206896 0.393585 -0.611142 0.20210426
1.8906807 -0.2602734 -0.4058623 -1.5290245 -0.34551772 -0.7528005 -1.4423658 0.66835874
-0.09778776 0.685174 -5.262834 1.3297914 -1.0173384 -0.05718943 -0.1697679 0.5213256
-0.6324297 -0.00022731736 4.4271665 -0.48954853 -0.5302964 -0.5655454 -0.6088864 0.21041828
1.6172893 -0.6214597 3.665013 -1.1938505 1.0301949 -0.43523267 1.1050566 1.4216061
-4.1648374 0.8215834 -5.7232714 -0.4804154 0.49234045 0.40158647 1.2116022 1.3762769
-2.1604357 -0.7538529 1.7841114 -0.436668 3.441892 0.29860002 2.5567768 0.75141263
-0.8719485 2.459567 -1.5507425 -1.5518554 0.08737824 -2.8813083 0.312136 0.23580506
-1.720999 2.4517257 1.4629363 3.4378521 -1.4999301 1.0376275 -1.9823853 1.8698388
5.116034 -0.87497914 0.66482943 -0.67505026 -1.0965477 -0.52329075 -0.35934317 -3.2026153
0.92943215 -1.4752712 1.798828 -0.3937692 -0.5041152 0.57737243 0.33072478 1.6820737
-1.9316359 0.9461674 -4.0498767 -0.35636154 0.63872856 -1.4677106 -0.31039393 0.6689072
0.43446237 0.22711226 -1.133195 -0.40085757 0.7176962 -0.16636363 0.5206868 0.77694
-1.9532058 0.47312984 1.2675244 0.8567864 -0.59178853 -0.18458918 0.9718603 0.21998504
-2.5914037 1.6417352 -0.32522 -5.022562 -0.48568943 1.2161868 2.6812594 0.6442415
-1.802452 1.9147859 -1.916716 -2.4930844 2.4322367 -5.2161903 0.39266455 0.7709769
00000000: 627c 90bf 9498 4740 6a59 8b40 c706 d63e
00000010: 8c16 ebbf 2eb9 bd3f 3837 89be 2fe1 963c
00000020: 50a1 a73f b717 d03d 6fac 85c0 d78b 25c0
00000030: 7ff1 713f c2a8 8abf 12e6 c1be 5327 15c0
00000040: f4e5 4c3f 921f cbbf e6d7 1c40 eda2 fd3e
00000050: 12d5 95bf 38fe 0840 a67c e23f fd8c 07be
00000060: d8fb 56c0 0721 a23f a575 acc0 0662 cb3e
00000070: aabf 2cc0 b05f 26c0 8aac 6440 c3cb 0d40
00000080: 41a5 8fbf 1d6a 1540 e465 ff3e 7a67 db3f
00000090: 0b42 1abf 2656 2f3f 8012 62bf 6712 39c0
000000a0: ab86 c0bf b13c a3bf 44d1 5fbf 61fa 883e
000000b0: 7c88 b63e c6a6 89bf e66a c83f 1b81 0840
000000c0: a0d4 fd3f dc5b cebf fea2 0c40 75dd 803f
000000d0: 6266 f5be 7106 0fbf afc9 9cbf cd07 72bf
000000e0: 6e30 0b40 7c15 7fbf 5aef dfbf 1aea a43e
000000f0: a88e 993f 4603 913f 6346 21bf 42aa 15c0
00000100: 4c4e 993f c50d 93bf 1918 d5bf 6708 1b3e
00000110: 1a0f 38bf 50ff acbe 1e9b 833e 4bb5 623d
00000120: 4de9 d8bf 716b c9bd 1018 8f3f 20da 2d3f
00000130: 3ea7 be3e 2a43 113f 924f 253f 6eaa d83d
00000140: 9050 8b3f 47e2 56c0 ce12 0cbf bbde 0ebf
00000150: c55c b93f 9c40 5a3f b703 493f 421c 673f
00000160: 9bd7 91bf 7e8f 933e 9786 38bf 07a8 20bf
00000170: 89c4 3bbf 9d8c 90c0 f1cf ac3f 8451 a2bf
00000180: 3824 adbd 6e0c 223f 2c8e a93e 78bd d03d
00000190: a6d6 863f 0284 c23d 13f7 4c3f cbbb 9f3c
000001a0: 08ec 0240 5d8e 343f 21de 743f 665d a0bf
000001b0: f3e7 1e3e 4f4a a43e f35d e9be 2c38 36bf
000001c0: 0eed 0640 c0b4 6ec0 4aa7 dbbf 0998 45bf
000001d0: 48d1 8abf db0a 10bf 0c8b 4a3e ac95 25bf
000001e0: 3239 2d40 91a9 fa3e fdea 5940 f0d0 a8be
000001f0: cd14 f43f 5cb5 b940 7ba9 55bf 3e91 06c0
00000200: e6fe dd3e 2db5 8f3f bd5e 853f 119b e83e
00000210: 5b0c a93f f983 c93e cd73 1cbf 6bf4 4e3e
00000220: d301 f23f 8e42 85be 2fcd cfbe 13b7 c3bf
00000230: b3e7 b0be 89b7 40bf 719f b8bf 8f19 2b3f
00000240: f344 c8bd 9067 2f3f 2369 a8c0 9b36 aa3f
00000250: 2538 82bf 773f 6abd a3d7 2dbe 9875 053f
00000260: eae6 21bf 0a5c 6eb9 59ab 8d40 1ba6 fabe
00000270: 81c1 07bf 95c7 10bf fbdf 1bbf e477 573e
00000280: 5603 cf3f fc17 1fbf 938f 6a40 18d0 98bf
00000290: 6ddd 833f d1d6 debe 7f72 8d3f 30f7 b53f
000002a0: 5946 85c0 4a53 523f 0a25 b7c0 02f9 f5be
000002b0: 0c14 fc3e be9c cd3e c815 9b3f d729 b03f
000002c0: 9444 0ac0 81fc 40bf c35d e43f f392 dfbe
000002d0: f547 5c40 1ae2 983e 3ba2 2340 945c 403f
000002e0: 0438 5fbf 8c69 1d40 bb7e c6bf 33a3 c6bf
000002f0: 5df3 b23d 5b67 38c0 4ad0 9f3e e276 713e
00000300: b249 dcbf 13e9 1c40 7f41 bb3f c505 5c40
00000310: b6fd bfbf fad0 843f cdbe fdbf e156 ef3f
00000320: 8db6 a340 a2fe 5fbf 4332 2a3f 18d0 2cbf
00000330: ad5b 8cbf 62f6 05bf d4fb b7be a6f7 4cc0
00000340: 44ef 6d3f b0d5 bcbf ff3f e63f 1e9c c9be
00000350: b20d 01bf aece 133f c254 a93e 314e d73f
00000360: d83f f7bf 0738 723f 9798 81c0 0575 b6be
00000370: b783 233f f1dd bbbf f4eb 9ebe 813d 2b3f
00000380: da71 de3e 1e90 683e 890c 91bf 343d cdbe
00000390: f0ba 373f 3a5b 2abe bb4b 053f 8ae5 463f
000003a0: a602 fabf 133e f23e 3d3e a23f 5a56 5b3f
000003b0: 747f 17bf f204 3dbe d6cb 783f c243 613e
000003c0: 8fd9 25c0 6124 d23f 3c83 a6be d4b8 a0c0
000003d0: 49ac f8be 02ac 9b3f c199 2b40 03ed 243f
000003e0: bfb6 e6bf b417 f53f f356 f5bf b28e 1fc0
000003f0: c4a9 1b40 08eb a6c0 540b c93e be5e 453f

model.convs2.2.bias f4 [32]
-0.3244527 -0.17422627 -0.39593357 2.0924273 1.8840616 -0.25284478 1.8363966 -0.15581228
1.8332802 0.48277548 1.239111 1.3984748 1.3432261 -0.80086774 1.8828366 -0.14153968
1.3173735 -0.72824395 -0.21750215 0.036441248 0.36625487 0.0037733698 -0.45620185 -0.23054846
-0.101739794 -0.44769517 0.6656284 2.0967762 -0.5678055 1.5430967 -1.2405005 2.7929714
00000000: aa1e a6be 5f68 32be ceb7 cabe 54ea 0540
00000010: ee28 f13f df74 81be 0b0f eb3f 418d 1fbe
00000020: eda8 ea3f 592e f73e 309b 9e3f 3901 b33f
00000030: d5ee ab3f ab05 4dbf ca00 f13f c7ef 10be
00000040: b29f a83f 326e 3abf e2b8 5ebe 6b43 153d
00000050: c285 bb3e a44a 773b 4a93 e9be e514 6cbe
00000060: f45c d0bd 4d38 e5be 9f66 2a3f 9531 0640
00000070: b45b 11bf 3184 c53f b8c8 9ebf 0bc0 3240
