trained_model/checkpoints/last_epoch=1000.ckpt (torch, 400335 bytes, 330 tensors)

model.convs1.0.weight f4 [16, 4]
0.37785923 0.26168624 0.41219223 0.79208964 -0.24360843 0.21763277 -1.8744833 0.36541
0.45621645 -0.055930045 2.1654289 0.05957185 0.74233925 0.22819181 2.3735323 0.15198101
1.027293 -0.037822712 -0.91386986 -0.7084864 -0.6165203 0.020654803 -1.4847337 0.45815516
-0.95430845 0.08088609 -0.102807924 -0.30857268 0.7866504 -0.22902215 -0.89938223 -0.40143833
0.5728168 -0.119653195 -1.5115569 0.69051546 0.3417137 2.474895 -0.13701543 1.8690668
0.3303271 -1.7222354 0.049426034 -1.5657828 1.476207 -0.18522201 2.0762882 0.20869508
0.4633235 -0.23684007 -0.5870127 -0.2760429 0.3972068 1.6217294 0.23571247 1.5810952
0.5102032 -0.12290446 1.3860976 -0.010745096 0.40701717 -1.3514044 -0.37966144 -1.5255893
00000000: c476 c13e bdfb 853e dc0a d33e 63c6 4a3f
00000010: 7d74 79be 20db 5e3e 12ef efbf 0517 bb3e
00000020: 3495 e93e e716 65bd 6396 0a40 9d01 743d
00000030: f209 3e3f 1dab 693e f4e7 1740 e9a0 1b3e
00000040: 567e 833f fdeb 1abd 60f3 69bf 5d5f 35bf
00000050: 46d4 1dbf 4334 a93c c10b bebf 5093 ea3e
00000060: 8f4d 74bf 9ba7 a53d f68c d2bd 3dfd 9dbe
00000070: ec61 493f c884 6abe ea3d 66bf 5389 cdbe
00000080: 1fa4 123f bc0c f5bd b27a c1bf 9fc5 303f
00000090: 19f5 ae3e ae64 1e40 c64d 0cbe 953d ef3f
000000a0: a220 a93e 3672 dcbf f472 4a3d 926b c8bf
000000b0: 5af4 bc3f d7aa 3dbe e8e1 0440 2ab4 553e
000000c0: bd38 ed3e 3486 72be 7746 16bf 7f55 8dbe
000000d0: b15e cb3e d494 cf3f 9c5e 713e 5461 ca3f
000000e0: ad9c 023f 55b5 fbbd a56b b13f 330c 30bc
000000f0: 8e64 d03e d2fa acbf fc62 c2be 8346 c3bf

model.convs1.0.bias f4 [16]
2.4890409 0.061409757 1.1999277 -1.4168948 2.2902102 -0.6566806 3.224512 2.1009371
3.6086307 -1.9992551 -0.50558007 -2.710742 -0.61312294 0.40884688 0.54246926 1.1027718
00000000: 724c 1f40 cc88 7b3d 3b97 993f cf5c b5bf
00000010: ce92 1240 381c 28bf 685e 4e40 c175 0640
00000020: cef3 6640 97e7 ffbf b26d 01bf cc7c 2dc0
00000030: a0f5 1cbf 6154 d13e 44df 0a3f a027 8d3f

model.convs1.1.weight f4 [16, 16]
-0.5239657 0.03812828 0.6133115 0.6386793 1.1901375 -0.79465693 -2.1423593 0.7440883
0.3914544 0.89914215 -0.47746885 -1.8480601 0.8658453 0.18830642 0.9685939 0.6603827
1.1646631 -1.3954693 2.2372153 -0.1413834 -0.77186316 -1.6446552 1.7078557 -1.8417155
-0.5555746 -0.04658501 0.9355544 -2.2957077 1.6384425 -0.72413844 -0.081155635 -1.0281036
0.7198467 0.6455593 -0.6344398 -0.92556256 -0.27951917 0.71598125 0.39839664 -0.4901083
0.3290207 2.4043386 -3.2275376 -0.8706319 -2.190283 7.607892 -2.3920522 -3.2365613
-0.50113493 -1.8234749 -0.21839994 0.13005652 0.91267157 -0.63084775 -2.4347515 1.0563173
-0.13420631 0.1802708 -0.39263535 2.1019876 1.2849219 0.97995824 1.0524689 0.75542545
0.599681 -2.842975 0.54832 -0.8901527 1.2780918 1.1426139 0.10218704 0.43638754
1.5578284 0.36506677 -0.19084466 -0.9817876 0.1857425 -0.2914939 -0.540735 0.3580155
1.9016966 -0.76655996 3.8246675 1.842681 0.35726717 -1.6726117 1.4583105 0.25067893
-0.524177 -0.84731215 -1.5764422 -0.39616224 -3.0654438 -0.026496634 2.359741 0.14769135
-1.0883619 -0.10377997 -0.13816483 -0.29215932 2.2901642 -0.8933041 1.0697293 1.1427104
-0.22725767 0.5587554 -0.1916285 -1.1477149 -0.2045361 0.07077259 0.17773317 0.23580122
-0.62091875 -0.24357955 0.5638082 1.7499111 -0.2276471 1.1261643 3.0085592 1.125927
0.4851982 -1.2606719 -0.9325203 0.059396897 -2.9129927 -0.46179414 -1.0191902 -0.82537985
-0.86218303 2.384063 -0.3128263 -0.8292504 -1.2351196 -1.1879519 0.98823065 -2.4004486
-1.1066802 0.6175391 4.526204 0.43090865 -1.2124457 -4.3469353 0.13075414 5.3274875
2.1477926 0.13433796 0.43162286 -0.03386539 -1.512169 -0.09973563 0.42018262 0.9887402
1.6520154 -0.049328934 -0.04091785 -0.976228 -1.3768075 -0.020538412 -0.5747188 0.28850138
0.23694587 0.6607523 0.39415386 -0.11564111 -0.15492128 0.24960165 -0.15194276 1.1065979
0.59189564 -2.4185362 0.21289404 -0.13434444 1.675435 4.559193 -0.7343133 -5.4510126
0.111032575 0.1927752 -0.04688909 0.24279489 0.096001096 0.2753 -0.103202015 -0.11816817
-0.15983632 0.05099217 0.20549694 -0.13941282 0.18388166 -0.08835299 0.10897227 -0.04662716
1.7530333 2.8112626 -1.0639917 -2.169123 2.3892848 -0.7272123 2.62777 1.4130037
3.041042 -1.4259104 -2.090277 0.73481 -1.7353699 -1.7511051 0.61346674 -1.2674887
-0.31699142 -0.12919223 0.74410355 1.0150008 -0.62151074 0.60337454 1.1143097 0.47511145
0.5491169 -0.32628977 0.86273146 0.26454964 0.07205268 0.5577324 -0.44445628 0.0749357
-0.3295737 -0.49902904 0.04624555 -0.22590904 -0.14307158 -0.76439476 0.75465727 0.72992253
1.6977087 0.4829827 0.4854943 -0.5603356 -0.25864398 0.42112738 0.49751168 0.030893145
1.1124731 1.0312195 1.0014309 0.8591586 0.24649243 -0.8321256 -0.32241178 -0.80948484
-0.98092824 0.18387401 -0.61933285 -0.6502358 0.12230545 0.14611132 0.61452436 0.2860805
00000000: 9e22 06bf 662c 1c3d fc01 1d3f 7d80 233f
00000010: 6d56 983f a36e 4bbf 6a1c 09c0 927c 3e3f
00000020: b66c c83e 2e2e 663f cc76 f4be 3c8d ecbf
00000030: 0aa8 5d3f 66d3 403e c5f5 773f d70e 293f
00000040: ae13 953f bd9e b2bf 892e 0f40 cfc6 10be
00000050: d398 45bf 1084 d2bf 049b da3f 55bd ebbf
00000060: 233a 0ebf eccf 3ebd 7e80 6f3f e0ec 12c0
00000070: 7cb8 d13f 2361 39bf ed34 a6bd e698 83bf
00000080: e047 383f 6043 253f a66a 22bf abf1 6cbf
00000090: 231d 8fbe 8c4a 373f a5fa cb3e 7aef fabe
000000a0: 6775 a83e afe0 1940 fa8f 4ec0 bbe1 5ebf
000000b0: 992d 0cc0 da73 f340 6217 19c0 d223 4fc0
000000c0: 614a 00bf a067 e9bf 3ca4 5fbe 892d 053e
000000d0: d8a4 693f 3d7f 21bf f8d2 1bc0 6835 873f
000000e0: 616d 09be e998 383e 8007 c9be f786 0640
000000f0: 5278 a43f 8bde 7a3f 4db7 863f 9063 413f
00000100: b284 193f 4df3 35c0 b35e 0c3f 0ce1 63bf
00000110: 8398 a33f 2c41 923f 7047 d13d 306e df3e
00000120: ec66 c73f 08ea ba3e c86c 43be 6f56 7bbf
00000130: 4833 3e3e b03e 95be 9c6d 0abf cf4d b73e
00000140: cb6a f33f 463d 44bf 5ac7 7440 f9dc eb3f
00000150: b9eb b63e 2418 d6bf eba9 ba3f fd58 803e
00000160: 7730 06bf 73e9 58bf dcc8 c9bf c7d5 cabe
00000170: 3b30 44c0 780f d9bc ff05 1740 673c 173e
00000180: 714f 8bbf 988a d4bd 157b 0dbe e895 95be
00000190: 0d92 1240 94af 64bf e4ec 883f 5644 923f
000001a0: 3cb6 68be 980a 0f3f 433a 44be 52e8 92bf
000001b0: e971 51be 38f1 903d afff 353e e075 713e
000001c0: 88f4 1ebf eb6c 79be bc55 103f 16fd df3f
000001d0: 521c 69be 2726 903f 3c8c 4040 601e 903f
000001e0: e66b f83e b25d a1bf a6b9 6ebf 294a 733d
000001f0: 796e 3ac0 4870 ecbe d374 82bf 184c 53bf
00000200: 07b8 5cbf 7d94 1840 c52a a0be c149 54bf
00000210: 6618 9ebf cf0e 98bf affc 7c3f f3a0 19c0
00000220: b2a7 8dbf 0b17 1e3f aad6 9040 0fa0 dc3e
00000230: 6c31 9bbf 181a 8bc0 6ae4 053e c77a aa40
00000240: 6f75 0940 e48f 093e acfd dc3e 6fb6 0abd
00000250: c18e c1bf 3242 ccbd 2d22 d73e 141e 7d3f
00000260: 3e75 d33f 230d 4abd 7a99 27bd 14ea 79bf
00000270: 3a3b b0bf 2c40 a8bc c520 13bf 74b6 933e
00000280: f0a1 723e 1027 293f 89ce c93e 3fd5 ecbd
00000290: afa3 1ebe 9397 7f3e e296 1bbe 00a5 8d3f
000002a0: 7986 173f 4cc9 1ac0 e500 5a3e 9791 09be
000002b0: a774 d63f e9e4 9140 f5fb 3bbf b26e aec0
000002c0: 0c65 e33d dd66 453e c60e 40bd 399f 783e
000002d0: 399c c43d 1ff4 8c3e 945b d3bd 2702 f2bd
000002e0: 22ac 23be 2add 503d ca6d 523e 3cc2 0ebe
000002f0: 794b 3c3e 6af2 b4bd da2c df3d 1ffc 3ebd
00000300: 6563 e03f baeb 3340 e130 88bf e9d2 0ac0
00000310: 0bea 1840 962a 3abf 622d 2840 4edd b43f
00000320: 6fa0 4240 3b84 b6bf 19c7 05c0 821c 3c3f
00000330: 9a20 debf 3624 e0bf 280c 1d3f 123d a2bf
00000340: b34c a2be f84a 04be 927d 3e3f 8ceb 813f
00000350: 541b 1fbf c176 1a3f b3a1 8e3f cf41 f33e
00000360: ed92 0c3f 740f a7be f8db 5c3f 0d73 873e
00000370: 5b90 933d 8dc7 0e3f c68f e3be e377 993d
00000380: e2bd a8be bc80 ffbe f96b 3d3d b354 67be
00000390: 5b81 12be 60af 43bf 3831 413f 34dc 3a3f
000003a0: 854e d93f 8249 f73e b592 f83e 2772 0fbf
000003b0: fc6c 84be 029e d73e dab9 fe3e 9f13 fd3c
000003c0: 8565 8e3f 00ff 833f e32e 803f d1f1 5b3f
000003d0: 8368 7c3e 2f06 55bf 2813 a5be 663a 4fbf
000003e0: 1d1e 7bbf 7849 3c3e 998c 1ebf da75 26bf
000003f0: 487b fa3d 359e 153e 7851 1d3f 2579 923e

model.convs1.1.bias f4 [16]
0.52893513 -0.8384325 -0.6257595 0.569558 0.674549 1.7869271 0.7720442 0.31150526
0.8673884 0.47095844 0.23006827 -0.0382708 3.48019 -0.50929695 1.6759416 -0.23495705
00000000: 4b68 073f 83a3 56bf c631 20bf 8ece 113f
00000010: 3eaf 2c3f 07ba e43f b0a4 453f 9e7d 9f3e
00000020: 2b0d 5e3f 7721 f13e 0497 6b3e d8c1 1cbd
00000030: 6fbb 5e40 4961 02bf 4185 d63f 9598 70be

model.convs1.2.weight f4 [32, 16]
-0.006629637 -1.4303385 -3.290273 0.2364655 0.26563278 -0.7856729 0.5194691 0.3488964
-0.91432333 -0.2031102 2.5715106 -1.7811105 0.48827478 0.3683527 0.3222518 0.28651717
-1.3809779 -2.6479123 -0.7699624 -2.1607122 1.8747939 -1.4661818 -1.8714336 -0.28673515
1.6688087 -1.4212192 1.3394834 -0.25241655 2.7576368 1.2651589 -1.9430239 -1.0092682
-2.6019764 -0.36527455 -0.08616677 0.3566183 -0.82576007 -2.148576 -1.0715117 1.3459107
-0.021672012 -0.056627657 -0.74731225 -0.8427822 0.069431484 0.3026371 -1.4802517 0.86768955
-1.6267705 0.1926571 -0.38606656 -1.008315 0.36074015 0.7755008 2.3132722 1.2975181
1.4205884 -1.2087412 0.43818936 -2.4754431 0.6521049 -0.42374104 0.82610625 -0.007983064
-1.2993937 -0.34706932 -0.13380814 -0.2722185 -0.07707179 0.63486224 -1.7883215 -0.17092247
-0.15191972 2.293339 0.02030661 -2.2262697 0.8075363 -0.194691 1.03881 0.35247916
0.049863588 0.93587685 -0.5046601 -0.9646371 -0.15039319 0.9842443 -1.0347518 -0.78627443
-0.048857234 -0.69864255 0.5046044 0.25988555 0.03173891 0.23740461 -0.6217021 -0.22700074
-0.6104651 -0.544384 -0.17404106 0.19839224 -0.28122848 3.3569841 0.10280282 0.35838142
0.2821258 0.69862044 0.2500643 -0.8884136 -0.56978875 -0.66401184 -1.2227707 0.23275669
-0.8988132 3.0166523 -0.11995788 -0.49936205 0.24919914 1.1185459 1.1620246 -1.1760919
-0.0034100944 1.1576067 0.020650169 -0.47617462 -0.5857283 -0.9451996 -1.0023637 0.7943895
0.9592452 0.16935372 -0.6841462 -0.38789636 -0.28655228 -0.43631363 -0.91878945 -0.9234808
1.251098 1.5269641 0.55475026 -0.44966906 -0.43444148 -0.24623679 0.8699077 -0.9926011
0.28835922 -0.9900264 0.91283715 -0.44738868 0.31328171 -0.05503326 0.25841606 0.23264405
-3.2022882 -0.7680064 1.6222711 -0.6600942 0.59352654 0.04083555 0.554327 -0.22515853
0.14513607 -0.117362745 -0.9477093 0.046331037 -0.09683606 0.88626367 -0.8871752 0.67068624
-0.43523553 -0.53284776 0.7726956 -0.5583528 0.4655451 -0.09185231 -1.5047433 -0.46326318
0.6640206 0.010049025 0.49624327 0.055634767 -0.9578259 -0.7699495 0.92268026 0.21467683
-0.11363324 0.39872438 -0.4062286 -0.43932304 0.1009227 0.45462975 0.8378956 0.50444835
0.27669647 -1.9363205 -3.5685642 0.27198818 0.3329099 1.2483335 0.42804223 0.9270784
-5.4689016 0.7613154 -2.5959704 -0.061808597 2.719112 -0.21758962 0.6912515 -0.112216085
-0.4964438 0.008374117 0.42922655 -0.7646572 0.6974729 -0.44543463 -0.46330994 -0.2912014
-0.32302582 -0.6528507 -0.56288755 0.34317705 -0.13864669 1.6733818 0.21073022 0.8873539
1.3732612 -0.15118119 0.33571625 0.64250684 -0.4540966 0.41077355 0.16263379 -1.513572
0.908332 -2.0724576 -0.3245488 -3.0322757 2.363931 0.09066824 1.3251356 0.0061820913
1.9054706 -1.7157322 -0.34138197 1.0643145 -0.642996 -0.65194666 -0.77917737 -0.42467406
-1.2072421 -0.48623195 -0.5021443 -0.12225612 -0.3453541 1.8666786 -1.237939 -0.44369212
00000000: 6d3d d9bb 5515 b7bf d593 52c0 0324 723e
00000010: 0501 883e dc21 49bf edfb 043f 8da2 b23e
00000020: 1811 6abf 1ffc 4fbe a193 2440 6efb e3bf
00000030: 27ff f93e ba98 bc3e 30fe a43e 61b2 923e
00000040: e2c3 b0bf 6577 29c0 411c 45bf 1c49 0ac0
00000050: 3ff9 ef3f d8ab bbbf 238b efbf f3ce 92be
00000060: 869b d53f 83ea b5bf 3174 ab3f be3c 81be
00000070: 1f7d 3040 baf0 a13f 02b5 f8bf b32f 81bf
00000080: c886 26c0 4405 bbbe 3478 b0bd ac96 b63e
00000090: 0365 53bf 4582 09c0 4c27 89bf cd46 ac3f
000000a0: 8189 b1bc 67f2 67bd db4f 3fbf 93c0 57bf
000000b0: 1832 8e3d 40f3 9a3e e378 bdbf e720 5e3f
000000c0: 043a d0bf e747 453e 84aa c5be 7710 81bf
000000d0: efb2 b83e 3887 463f a70c 1440 1315 a63f
000000e0: d7d5 b53f 08b8 9abf 5b5a e03e a96d 1ec0
000000f0: 59f0 263f 96f4 d8be b37b 533f 66cb 02bc
00000100: 8852 a6bf 12b3 b1be 0005 09be 3960 8bbe
00000110: d1d7 9dbd 5586 223f b8e7 e4bf 4d06 2fbe
00000120: d890 1bbe 11c6 1240 0c5a a63c 347b 0ec0
00000130: b3ba 4e3f 145d 47be baf7 843f 2678 b43e
00000140: c33d 4c3d a095 6f3f 6831 01bf 75f2 76bf
00000150: ac00 1abe 6ff7 7b3f bf72 84bf 4849 49bf
00000160: 861e 48bd 3dda 32bf c12d 013f b80f 853e
00000170: a900 023d 321a 733e de27 1fbf e272 68be
00000180: 7147 1cbf c05c 0bbf d237 32be 5627 4b3e
00000190: 2efd 8fbe d4d8 5640 498a d23d c57d b73e
000001a0: cb72 903e cad8 323f 6e08 803e 136f 63bf
000001b0: addd 11bf aefc 29bf c083 9cbf c557 6e3e
000001c0: 9f18 66bf d510 4140 7aac f5bd 62ac ffbe
000001d0: 0f2e 7f3e 832c 8f3f 39bd 943f 2e8a 96bf
000001e0: e47b 5fbb 752c 943f 8b2a a93c 29cd f3be
000001f0: 4af2 15bf 9af8 71bf 744d 80bf 1c5d 4b3f
00000200: 1891 753f 106b 2d3e 3524 2fbf 5a9a c6be
00000210: fbb6 92be 8064 dfbe c935 6bbf 3d69 6cbf
00000220: fb23 a03f 8f73 c33f 1d04 0e3f 063b e6be
00000230: 1d6f debe 7f25 7cbe 45b2 5e3f 1b1b 7ebf
00000240: d2a3 933e 5f72 7dbf b2af 693f 2110 e5be
00000250: 7666 a03e 8e6a 61bd 1c4f 843e 3e3a 6e3e
00000260: 4af2 4cc0 119c 44bf 94a6 cf3f effb 28bf
00000270: 5bf1 173f 2d43 273d 60e8 0d3f f58f 66be
00000280: 8d9e 143e e15b f0bd 149d 72bf 9dc5 3d3d
00000290: fc51 c6bd 2de2 623f ea1d 63bf 18b2 2b3f
000002a0: 31d7 debe b668 08bf 61cf 453f 36f0 0ebf
000002b0: ed5b ee3e 101d bcbd 6e9b c0bf d530 edbe
000002c0: 41fd 293f aaa4 243c 9913 fe3e 48e1 633d
000002d0: 1434 75bf 691b 45bf c634 6c3f 3ed4 5b3e
000002e0: 8bb8 e8bd 9a25 cc3e 32fd cfbe f3ee e0be
000002f0: 8fb0 ce3d 3bc5 e83e 5380 563f 8723 013f
00000300: 29ab 8d3e 5ad9 f7bf 5b63 64c0 0942 8b3e
00000310: 2b73 aa3e 64c9 9f3f 5a28 db3e 0355 6d3f
00000320: 3e01 afc0 91e5 423f 6124 26c0 032b 7dbd
00000330: ee05 2e40 d0cf 5ebe dcf5 303f 8cd1 e5bd
00000340: e22d febe 9833 093c 95c3 db3e 93c0 43bf
00000350: 958d 323f 0210 e4be f636 edbe 5a18 95be
00000360: a463 a5be 3921 27bf 6619 10bf e7b4 af3e
00000370: 66f9 0dbe 6031 d63f aac9 573e a029 633f
00000380: 06c7 af3f 3ecf 1abe 00e3 ab3e 547b 243f
00000390: 597f e8be e950 d23e 7989 263e babc c1bf
000003a0: 7288 683f 25a3 04c0 432b a6be ce10 42c0
000003b0: a54a 1740 45b0 b93d 0b9e a93f 2493 ca3b
000003c0: 76e6 f33f 1d9d dbbf 9ec9 aebe 753b 883f
000003d0: 639b 24bf fae5 26bf 2b78 47bf e16e d9be
000003e0: e986 9abf 65f3 f8be 878c 00bf 6b61 fabd
000003f0: 41d2 b0be 53ef ee3f c974 9ebf 9d2b e3be

model.convs1.2.bias f4 [32]
0.13528566 -0.5906629 -0.017170688 1.9848179 1.863815 -0.58549786 1.6414105 0.119237535
1.7943478 0.5778788 1.1190612 1.3579869 1.1237649 -0.6852254 2.2493062 -0.3595568
1.0572512 -0.54042923 -0.27362552 0.013297042 0.16017531 -0.17884435 -0.31872198 -0.12278723
0.26013997 -0.33038715 0.7074021 2.4264421 -0.7262206 1.7478054 -1.0794299 3.0521195
00000000: 5388 0a3e af35 17bf 8ba9 8cbc 830e fe3f
00000010: 7d91 ee3f 30e3 15bf bd19 d23f cf32 f43d
00000020: 30ad e53f ddef 133f 663d 8f3f 84d2 ad3f
00000030: 87d7 8f3f ef6a 2fbf a2f4 0f40 d417 b8be
00000040: 0254 873f 9259 0abf a518 8cbe d6db 593c
00000050: ff04 243e f922 37be 872f a3be df77 fbbd
00000060: 1131 853e 8128 a9be 4e18 353f d44a 1b40
00000070: 98e9 39bf 16b8 df3f c22a 8abf ed55 4340

model.convs1.3.weight f4 [32, 32]
-0.9544371 0.61929405 -1.2596602 -0.4349083 -0.0595924 0.23935609 0.16810262 0.31097767
0.5750843 0.2591649 0.3632929 -0.48227847 1.7942216 -0.55232465 1.5550445 1.3750513
0.017320257 0.5282322 1.1581573 0.062459756 0.6123491 -0.31759596 -0.52190834 -1.2110261
1.1298251 -0.01000694 -0.89439315 -1.3955415 -0.7564388 0.7679473 -0.28719172 -0.3632661
0.21908042 -0.44338745 -0.20991679 0.061008397 -0.07714394 -0.054529298 -1.109178 -0.25674728
0.8467907 0.53839934 0.18251026 1.0160004 0.88278115 -2.607746 0.85846406 -1.0742214
-0.49903435 -0.56403553 -0.7459702 -0.07923252 1.4066257 -0.12181818 2.5759723 -0.022882666
-0.1879948 1.5352485 -0.8212052 -0.6100412 0.6225927 -0.29233518 -0.38943982 -2.142291
-0.72664964 -0.2155772 -0.29118475 1.9850227 -0.6053872 0.30542752 3.7658548 0.05618472
-1.1769538 0.5567166 0.15392745 0.87203777 0.78064966 -0.8432774 0.7936724 0.24882093
-1.361475 -0.7374751 -0.45408085 -0.2161522 0.09447813 -0.4722396 -0.29965952 -0.4316661
0.26068944 -0.28227675 -0.20976464 -1.2339292 -0.5816124 1.1936349 -2.7227654 1.0394417
-0.60680705 0.39122573 0.8739494 -0.6883523 -0.57560575 1.4353939 -1.6132507 -3.6590507
-1.0277249 -0.15206173 0.5058261 2.7748344 -2.072663 -0.2722487 -2.1265733 0.80513406
-0.8196149 -0.9851415 1.0480857 -0.73912877 0.10070338 -1.5501782 2.2631872 -1.6910958
1.0848422 -1.4059916 -0.6542489 2.2226734 -0.16822487 -1.8968215 -1.4602765 3.8602417
-2.6384296 0.20292008 0.4367095 -1.1023002 0.44159138 0.24777813 1.444832 0.3469448
1.7965984 4.2891536 -1.4505017 0.19683465 -2.910358 0.24183206 -0.093798995 1.0125688
-0.18084586 2.1072297 1.3888942 2.0074298 1.2697101 -0.53401256 0.5222118 0.9364838
0.422869 -0.029138157 -1.0636427 0.99403036 -0.4431495 0.9151914 1.2332731 0.34989864
-1.4992653 -0.4839616 0.44915822 -0.41392007 -0.26036596 -0.42926276 -1.2592748 -0.03614345
1.3440642 -0.18393591 1.3411982 -0.475782 0.079995975 -0.0030927793 1.7913262 -0.0026275488
-0.5571625 0.11310913 -1.7236837 -1.8280997 -1.2515908 0.054847393 -1.4250033 -0.5355628
-1.0595704 0.94689274 -1.2309712 -0.40378946 2.4397485 -0.55897826 -0.73950356 0.17596923
0.23883155 0.34518024 -0.21498834 1.8248296 0.95251 -0.39286858 0.04723234 0.20064367
0.44172716 0.55160147 0.4199181 0.6282088 -0.22890685 -0.08834623 -0.90716136 -0.14064513
-0.19467692 -0.07058281 0.29506797 0.7586394 0.8678275 0.056049842 1.0530572 -0.15200078
-0.46164626 -0.5722668 -0.5608244 0.576667 0.1499358 -0.25199354 -0.6714467 -1.1938436
-0.13616623 -2.2832325 0.32102105 0.65527403 -0.15645476 -1.4222581 0.8365279 1.3795431
0.99326783 0.20744096 -0.79130805 -0.35913318 -0.33070263 0.33640227 0.86380595 -0.07593741
1.1407989 0.42290586 0.3814213 0.94590646 -2.4556034 1.1292632 -0.16530244 0.031417716
-0.47570214 -1.9801942 1.1346383 -2.1987739 -0.5621911 -0.5216124 -0.024044814 1.0015926
00000000: fd55 74bf 0e8a 1e3f 8c3c a1bf 4dac debe
00000010: 2917 74bd c319 753e 1823 2c3e 7738 9f3e
00000020: ba38 133f 43b1 843e 8701 ba3e 34ed f6be
00000030: 0ea9 e53f 2665 0dbf b30b c73f ae01 b03f
00000040: 36e3 8d3c 3a3a 073f 803e 943f cdd5 7f3d
00000050: e9c2 1c3f f09b a2be c99b 05bf e702 9bbf
00000060: 1c9e 903f 26f4 23bc f3f6 64bf 1ba1 b2bf
00000070: f9a5 41bf 3298 443f cb0a 93be 04fe b9be
00000080: 9e56 603e ae03 e3be 6df4 56be f1e3 793d
00000090: a4fd 9dbd 1d5a 5fbd 8bf9 8dbf 6174 83be
000000a0: 46c7 583f 8ad4 093f f8e3 3a3e 4d0c 823f
000000b0: f2fd 613f 4fe5 26c0 4dc4 5b3f 1680 89bf
000000c0: 6e81 ffbe a264 10bf e7f7 3ebf a944 a2bd
000000d0: 500c b43f cf7b f9bd bbdc 2440 6e74 bbbc
000000e0: b581 40be 0683 c43f 813a 52bf a92b 1cbf
000000f0: 3c62 1f3f f5ac 95be a864 c7be 4c1b 09c0
00000100: b605 3abf 45c0 5cbe 2b16 95be 3915 fe3f
00000110: a8fa 1abf ff60 9c3e c403 7140 f321 663d
00000120: 6ca6 96bf fb84 0e3f 289f 1d3e de3d 5f3f
00000130: a8d8 473f 07e1 57bf 1d2e 4b3f eaca 7e3e
00000140: d044 aebf 2bcb 3cbf 497d e8be 0157 5dbe
00000150: c07d c13d 64c9 f1be f96c 99be 5703 ddbe
00000160: 1679 853e 9486 90be 8bcc 56be 64f1 9dbf
00000170: 8de4 14bf 07c9 983f ca41 2ec0 6d0c 853f
00000180: b557 1bbf bd4e c83e 26bb 5f3f db37 30bf
00000190: e65a 13bf fdba b73f 007f cebf e32d 6ac0
000001a0: 7d8c 83bf 12b6 1bbe d27d 013f e396 3140
000001b0: 83a6 04c0 2e64 8bbe c719 08c0 441d 4e3f
000001c0: 48d2 51bf 3c32 7cbf ac27 863f 8b37 3dbf
000001d0: 933d ce3d 3d6c c6bf 0fd8 1040 d475 d8bf
000001e0: 1cdc 8a3f 88f7 b3bf db7c 27bf 4840 0e40
000001f0: 2443 2cbe 0ccb f2bf 57ea babf 330e 7740
00000200: 08dc 28c0 48ca 4f3e 6398 df3e 2c18 8dbf
00000210: 4418 e23e 8db9 7d3e 41f0 b83f c0a2 b13e
00000220: f0f6 e53f bf40 8940 0aaa b9bf 068f 493e
00000230: 4e43 3ac0 d3a2 773e b019 c0bd db9b 813f
00000240: a82f 39be dadc 0640 49c7 b13f bb79 0040
00000250: dc85 a23f 0cb5 08bf acaf 053f 67bd 6f3f
00000260: 4982 d83e 25b3 eebc 7225 88bf c678 7e3f
00000270: 7ee4 e2be fc49 6a3f e5db 9d3f ea25 b33e
00000280: ede7 bfbf d1c9 f7be 11f8 e53e 55ed d3be
00000290: b04e 85be 54c8 dbbe eb2f a1bf 270b 14bd
000002a0: 4c0a ac3f b259 3cbe 62ac ab3f b399 f3be
000002b0: eed4 a33d 3ab0 4abb 2d4a e53f f432 2cbb
000002c0: 34a2 0ebf c2a5 e73d aba1 dcbf 2cff e9bf
000002d0: 2134 a0bf a9a7 603d 8266 b6bf a51a 09bf
000002e0: 01a0 87bf 9067 723f 7790 9dbf 7ebd cebe
000002f0: d724 1c40 3319 0fbf 1b50 3dbf 4731 343e
00000300: 4290 743e 77bb b03e e725 5cbe 0494 e93f
00000310: b2d7 733f 1226 c9be b376 413d 8975 4d3e
00000320: 102a e23e c135 0d3f 81ff d63e 4bd2 203f
00000330: 8f66 6abe deee b4bd ba3b 68bf 4705 10be
00000340: 6359 47be b88d 90bd 2613 973e 3136 423f
00000350: f129 5e3f 8594 653d 94ca 863f 18a6 1bbe
00000360: e65c ecbe 1480 12bf 3092 0fbf 73a0 133f
00000370: c588 193e 4c05 81be eee3 2bbf decf 98bf
00000380: 296f 0bbe 7b20 12c0 df5c a43e 0ac0 273f
00000390: ad35 20be 8e0c b6bf b126 563f de94 b03f
000003a0: cd46 7e3f 676b 543e 2a93 4abf 4ee0 b7be
000003b0: db51 a9be eb3c ac3e 6322 5d3f 1385 9bbd
000003c0: b305 923f 1e87 d83e a749 c33e ed26 723f
000003d0: 9b28 1dc0 b28b 903f 0b45 29be ddaf 003d
000003e0: 3b8f f3be 0177 fdbf d43b 913f b6b8 0cc0
000003f0: c2eb 0fbf 6488 05bf a1f9 c4bc 3034 803f

model.convs1.3.bias f4 [32]
0.10740493 -0.04116529 2.909501 1.464033 -1.1446403 1.1647334 1.1344584 0.1131761
-0.6829675 -0.2627526 -1.3479774 -0.26763394 -0.46049872 0.06848969 2.0905092 2.065793
-0.6348971 1.1063744 0.17500043 -0.64605486 0.4984249 1.0246829 -0.37771893 0.5679382
0.32123023 0.77122515 0.34524342 0.2850758 2.077084 -0.55175334 -0.043609142 -0.4019534
00000000: 1ef7 db3d ef9c 28bd 4435 3a40 6f65 bb3f
00000010: 9383 92bf fc15 953f ef35 913f dfc8 e73d
00000020: f5d6 2ebf 8287 86be 868a acbf 5107 89be
00000030: 7dc6 ebbe 5344 8c3d e7ca 0540 f435 0440
00000040: 9e88 22bf ad9d 8d3f 5033 333e da63 25bf
00000050: 8c31 ff3e cf28 833f 6064 c1be 6664 113f
00000060: 4a78 a43e 036f 453f bfc3 b03e 75f5 913e
00000070: f2ee 0440 b53f 0dbf 809f 32bd d6cc cdbe

model.convs1.4.weight f4 [16, 32]
1.2426916 0.9595631 -0.28991428 0.3231923 0.82852376 0.38281822 -0.9821018 -1.2304586
0.607504 -0.62340146 -0.7175306 -0.9238667 1.4480023 -1.6086389 -1.1970837 0.40363282
1.3919617 0.531758 -0.09738614 0.38408783 -0.52300817 0.72731334 0.42791763 -0.71980655
-0.42977116 -0.64187837 0.08439402 0.56313056 0.09462145 -0.644235 -2.211424 0.25968
0.56693876 -0.36506504 -0.3135088 0.40922707 0.024724944 0.15444593 -1.1427412 0.088103026
-0.84956646 0.09616359 -1.0557312 -0.54983914 0.51357055 -1.3060051 0.32160398 -0.5781947
-0.019408343 0.23780723 0.103609696 -0.37917256 -0.2903756 -0.5977819 0.5790921 -0.13314791
-0.4417369 0.09241197 -0.57949597 0.6136789 1.1311818 -0.46887776 -0.054989666 -0.56211686
1.4821991 2.114667 -0.6342925 0.004056944 -0.3541902 1.9570439 -1.5615543 -0.38451692
-0.15310387 2.3877263 -0.6314433 0.69302243 -0.43620113 0.2861718 -0.48453772 0.05502733
-0.16309583 -0.88456523 0.13501614 -1.0653727 -0.37353182 -0.10631217 -0.054778 -0.47355357
-0.38175574 0.6506784 -0.7049614 1.3490272 0.42782304 0.3017332 -0.1699342 -0.0022759421
0.4538145 2.740517 0.29720914 0.78227955 0.6463524 -0.8533045 -2.0430484 0.6551393
-0.20543161 -0.2551724 0.08864531 0.42879885 -0.56019795 -0.9464263 0.40027803 1.0250788
2.4903803 0.32076806 0.16919865 0.11979657 -0.43965057 0.41571343 -0.21488306 1.1889457
0.2358689 -0.41190988 0.61701053 -2.1079755 -0.29464513 -1.1484487 0.41015965 -1.8836929
-0.2136853 0.23807186 0.0065082116 -0.99232996 0.054171104 0.5473603 1.1401929 0.15580478
-0.7933954 -1.1733226 0.09833807 -0.1507437 0.43795973 0.17037608 -0.20505553 -1.4492389
1.5748965 0.921276 -1.2099322 1.274203 0.8231184 -0.29190078 -0.19959137 -1.4943022
0.12280708 -0.22190307 -0.17894141 0.18353625 0.8065196 1.1427186 0.57206935 -1.0577815
2.4104588 4.2047086 0.9014127 1.7151477 4.4200406 -2.2362645 0.2571364 2.2908435
-0.061470754 0.49931777 1.1061174 4.2487316 6.641116 2.2692373 2.273026 1.7271917
0.5736347 -0.8562119 -3.5957644 1.7443448 -2.4177942 2.29704 -0.4819042 0.3866339
1.1615607 1.1371527 5.479051 -3.3293266 1.7905581 1.9110414 0.62162817 -0.41369772
-0.45209748 0.48831123 2.433776 0.902575 -0.5076043 0.43615705 0.010179974 -1.9404784
-1.0030855 -1.3959457 -3.5806096 0.038465843 -1.793203 -0.8103462 1.9262398 2.3226779
-1.0012587 -0.55404454 -0.2912223 -1.7298012 -0.21983323 0.749646 -0.9817125 0.5260922
0.19261466 -0.59273964 -1.3173453 -1.4637483 2.396978 -1.0866703 0.2632818 0.12143764
-0.9483074 -0.5438512 -1.8674871 1.8881044 0.7244258 -2.1165833 -2.0051525 -1.3213743
2.1060376 -0.41865566 -1.2041742 0.3536418 -1.7539634 -2.1734693 -0.30004323 2.1840067
0.08067322 0.098353416 3.244703 -0.35324302 -0.41765496 -2.3505743 1.125322 2.724721
0.10864847 -2.968474 0.34286633 0.8759295 0.23939139 3.1135755 0.3050373 3.0857482
00000000: 8510 9f3f eda5 753f a56f 94be 7679 a53e
00000010: 221a 543f c000 c43e 066b 7bbf ab7f 9dbf
00000020: 6285 1b3f 3d97 1fbf 16b0 37bf 8782 6cbf
00000030: 2458 b93f e1e7 cdbf 0a3a 99bf f6a8 ce3e
00000040: cd2b b23f 4b21 083f 6272 c7bd 29a7 c43e
00000050: dde3 05bf 3531 3a3f 0518 db3e 3e45 38bf
00000060: f70a dcbe 2452 24bf c6d6 ac3d 5329 103f
00000070: e4c8 c13d 96ec 24bf f987 0dc0 c7f4 843e
00000080: e622 113f cee9 babe 3a84 a0be 3686 d13e
00000090: f78b ca3c 1327 1e3e 5845 92bf 5c6f b43d
000000a0: 307d 59bf 6bf1 c43d 3322 87bf 42c2 0cbf
000000b0: 5c79 033f 2d2b a7bf 47a9 a43e 9104 14bf
000000c0: 3ffe 9ebc bd83 733e 5231 d43d e822 c2be
000000d0: 1cac 94be 3c08 19bf 613f 143f ed57 08be
000000e0: 572b e2be 7d42 bd3d d959 14bf 0f1a 1d3f
000000f0: 91ca 903f bf10 f0be d83c 61bd e4e6 0fbf
00000100: b3b8 bd3f b456 0740 fe60 22bf 1df0 843b
00000110: 6b58 b5be 6a80 fa3f 03e1 c7bf 67df c4be
00000120: 43c7 1cbe 82d0 1840 45a6 21bf eb69 313f
00000130: c155 dfbe 1c85 923e 5415 f8be 5664 613d
00000140: 9802 27be de72 62bf ac41 0a3e 225e 88bf
00000150: 903f bfbe 32ba d9bd e55e 60bd 9d75 f2be
00000160: 7d75 c3be dc92 263f 5a78 34bf ecac ac3f
00000170: 9f0b db3e c67c 9a3e 3b03 2ebe f927 15bb
00000180: 605a e83e a164 2f40 cc2b 983e 7943 483f
00000190: 5a77 253f 2a72 5abf 4ec1 02c0 36b7 273f
000001a0: aa5c 52be f5a5 82be ac8b b53d 868b db3e
000001b0: 2269 0fbf fe48 72bf 3ef1 cc3e c835 833f
000001c0: 6462 1f40 b63b a43e 6942 2d3e e757 f53d
000001d0: e119 e1be 64d8 d43e 4e0a 5cbe 5f2f 983f
000001e0: 9e87 713e dae5 d2be 67f4 1d3f 12e9 06c0
000001f0: badb 96be 5e00 93bf 7200 d23e d91c f1bf
00000200: 52d0 5abe 1cc9 733e d642 d53b 5609 7ebf
00000210: 85e2 5d3d ce1f 0c3f d7f1 913f 4a8b 1f3e
00000220: f61b 4bbf 6f2f 96bf 7865 c93d 8e5c 1abe
00000230: 423c e03e 1177 2e3e 14fa 51be a980 b9bf
00000240: 3596 c93f bed8 6b3f 0fdf 9abf 1519 a33f
00000250: e3b7 523f 0574 95be ae61 4cbe 4b45 bfbf
00000260: 4782 fb3d 8f3a 63be 6b3c 37be edf0 3b3e
00000270: 1278 4e3f 9a44 923f 2373 123f 6265 87bf
00000280: f544 1a40 f98c 8640 fcc2 663f f689 db3f
00000290: f970 8d40 f51e 0fc0 62a7 833e 2e9d 1240
000002a0: c2c8 7bbd 94a6 ff3e 4195 8d3f 9cf5 8740
000002b0: 0684 d440 2f3b 1140 4279 1140 9e14 dd3f
000002c0: b9d9 123f b430 5bbf 0121 66c0 b146 df3f
000002d0: 24bd 1ac0 b402 1340 26bc f6be e1f4 c53e
000002e0: 05ae 943f 388e 913f 6354 af40 b013 55c0
000002f0: 0231 e53f 019d f43f 0623 1f3f 30d0 d3be
00000300: 5279 e7be ee03 fa3e fcc2 1b40 280f 673f
00000310: 5bf2 01bf fa4f df3e e8c9 263c 9961 f8bf
00000320: 1b65 80bf 59ae b2bf b528 65c0 5c8e 1d3d
00000330: ad87 e5bf d972 4fbf 078f f63f c1a6 1440
00000340: 3f29 80bf ddd5 0dbf 171b 95be 206a ddbf
00000350: f61b 61be cde8 3f3f 8351 7bbf faad 063f
00000360: c73c 453e c9bd 17bf c59e a8bf 1b5c bbbf
00000370: 1668 1940 0318 8bbf dfcc 863e 4cb4 f83d
00000380: 46c4 72bf d539 0bbf d109 efbf 68ad f13f
00000390: f873 393f 1a76 07c0 6b54 00c0 cb22 a9bf
000003a0: 52c9 0640 095a d6be 6122 9abf 8a10 b53e
000003b0: df81 e0bf 1f1a 0bc0 449f 99be c4c6 0b40
000003c0: 0038 a53d 846d c93d 37a9 4f40 45dc b4be
000003d0: dfd6 d5be cf6f 16c0 8d0a 903f d461 2e40
000003e0: 1783 de3d 7afb 3dc0 2d8c af3e ea3c 603f
000003f0: 0423 753e d244 4740 d92d 9c3e e67c 4540

model.convs1.4.bias f4 [16]
-0.21483195 0.61569357 0.28750825 0.20605229 -0.20099874 -1.5427673 2.913715 0.8702462
1.2914193 0.29081193 -0.2811231 1.0328679 0.42794394 -0.72218114 -1.047563 1.0640216
00000000: e8fc 5bbe 189e 1d3f 4834 933e 5fff 523e
00000010: 9dd2 4dbe 6679 c5bf 4e7a 3a40 74c8 5e3f
00000020: 3a4d a53f 4de5 943e 5eef 8fbe 0435 843f
00000030: 781b db3e dde0 38bf 8b16 86bf dc31 883f

model.convs1.5.weight f4 [16, 16]
-1.7103544 0.55472565 -0.23730725 3.8227677 -3.0072777 -8.943866 -0.56410646 3.4071
-2.2687883 3.5045989 -0.8714005 -1.621974 -4.6152697 -0.45033625 2.3538213 0.46228644
0.18132232 -0.36840305 0.100517325 -0.2865137 -0.6567676 -1.2978051 -0.03137346 -0.5144648
-0.7103523 0.1305154 -1.2066607 2.8381205 -0.18613522 0.016839355 0.44166347 0.4144584
-1.0541624 0.4730913 0.9682659 -1.9842261 -0.09257571 -0.40833625 0.06639146 -1.0750755
1.7188714 0.46230584 0.0731137 0.34630793 1.0106602 0.06777457 1.3007693 0.29632425
-0.16746224 0.8823897 1.6232835 1.5832524 0.5471348 3.5424922 -0.7609048 1.1490173
3.139827 0.8634864 -0.681257 2.4041224 1.0576512 2.0983129 2.220139 0.694565
-0.15385203 0.001396519 -0.012463832 -0.16795902 0.026459925 0.009698737 -0.09096463 0.07316356
0.116350666 -0.11639975 0.2223628 -0.12673356 0.12547895 0.19431768 0.2854948 -0.20445816
1.0612849 0.31423366 0.9207796 4.387678 0.72167957 -1.4042755 -0.42930183 0.49866393
1.5156145 1.4080969 -2.2037206 0.59247386 0.5566323 -0.94319123 1.4661721 0.013866645
1.2220532 -0.717213 -0.6138597 -1.0646954 -0.5572652 0.579295 0.6618718 1.0769527
-1.4192117 -0.4426413 0.30558643 -1.3601285 -0.8177152 -0.83216876 -1.6303029 0.7332263
-1.235147 2.322894 -0.4269067 -0.17395622 -2.4408677 -0.56627876 2.2147174 -0.88537467
-0.13771264 -0.51061153 -2.1004183 0.50330925 2.1611462 -1.7364162 -0.2981563 0.045594297
-0.6429717 -2.8623624 -0.72756803 -0.41807362 1.0019048 -4.490421 -0.42390108 -0.65313166
-1.0909498 -0.17607346 2.1954162 -0.9863733 -0.843769 -0.38146496 -1.3209493 0.109858625
0.07813346 -0.1214893 0.0734738 0.27852443 0.15889011 0.20270374 -0.042900946 0.12862217
0.0650279 -0.051869858 -0.0035462237 0.043888878 0.06834122 -0.14510322 0.108540714 0.1150525
0.1888499 0.16786252 -0.05410454 0.16867694 -0.018435817 0.1832592 -0.30835056 -0.36736837
-1.0251888 0.23471214 0.10718991 0.52601177 0.15624516 -1.8770224 2.7867548 -0.24632895
0.8292281 0.40951514 0.14235684 0.35041302 0.1391525 1.9545716 -0.41734186 -0.29279965
2.0340593 0.07332103 1.2392166 -0.5041906 0.70920414 0.05824667 1.0225636 0.05232571
0.53230447 -0.44034535 -0.29040602 0.86927706 -1.2657174 -2.4543517 0.67570627 0.40598333
1.5467738 0.28225055 -2.064274 -0.48027727 -1.3291656 -0.2838244 -0.87119234 0.6554475
0.08932775 0.7457945 0.6016272 1.0208504 0.75773174 2.720147 -0.078990646 0.25172475
1.5826235 0.19229336 1.0754246 -0.25147054 0.448609 -0.17116927 0.6219873 0.3053244
-0.39075452 -1.1717769 -1.2874113 -0.23171669 0.4125834 -0.44444552 1.2305025 -2.4469454
0.81462204 -1.1420763 -1.0243205 0.3526087 1.4130832 -0.48549384 0.13381313 3.1831787
-0.20473446 -1.4655527 2.0505238 -0.77321076 1.1938391 -0.42144755 0.46834928 -1.3841659
-0.7729001 -0.27990833 -2.1827545 -1.0271094 0.49982703 -0.98757184 0.3425793 1.4056416
00000000: e5ec dabf 8002 0e3f ac00 73be 3aa8 7440
00000010: 3d77 40c0 131a 0fc1 4869 10bf ed0d 5a40
00000020: d433 11c0 594b 6040 1a14 5fbf d89c cfbf
00000030: 4ab0 93c0 7992 e6be 02a5 1640 cfb0 ec3e
00000040: 8fac 393e 539f bcbe 07dc cd3d ecb1 92be
00000050: ec21 28bf 7a1e a6bf 7581 00bd f7b3 03bf
00000060: a6d9 35bf d4a5 053e dc73 9abf c4a3 3540
00000070: 3b9a 3ebe b0f2 893c b721 e23e e433 d43e
00000080: cbee 86bf 0639 f23e 46e0 773f 1ffb fdbf
00000090: 5598 bdbd 7311 d1be 3ff8 873d 139c 89bf
000000a0: fa03 dc3f 5ab3 ec3e a3bc 953d 464f b13e
000000b0: 505d 813f 65cd 8a3d 9c7f a63f d0b7 973e
000000c0: 397b 2bbe 4be4 613f c1c7 cf3f 04a8 ca3f
000000d0: 0711 0c3f 31b8 6240 a8ca 42bf 0013 933f
000000e0: edf2 4840 720d 5d3f dc66 2ebf 24dd 1940
000000f0: 1d61 873f c24a 0640 c216 0e40 03cf 313f
00000100: 638b 1dbe 670b b73a 1a35 4cbc 73fd 2bbe
00000110: 7cc2 d83c 74e7 1e3c aa4b babd c7d6 953d
00000120: 4249 ee3d fe62 eebd 13b3 633e 71c6 01be
00000130: 8e7d 003e 37fb 463e 602c 923e 7b5d 51be
00000140: 2fd8 873f 3ce3 a03e 36b8 6b3f dc67 8c40
00000150: febf 383f 4dbf b3bf 73cd dbbe e150 ff3e
00000160: a8ff c13f 853c b43f c209 0dc0 5eac 173f
00000170: 747f 0e3f fb74 71bf 87ab bb3f ed30 633c
00000180: 3d6c 9c3f 459b 37bf e925 1dbf f047 88bf
00000190: efa8 0ebf ad4c 143f 6e70 293f 96d9 893f
000001a0: bba8 b5bf e1a1 e2be d375 9c3e b118 aebf
000001b0: c955 51bf 0309 55bf c4ad d0bf b8b4 3b3f
000001c0: 4c19 9ebf 4caa 1440 8493 dabe 9421 32be
000001d0: 2d37 1cc0 a5f7 10bf eebd 0d40 eaa7 62bf
000001e0: 8b04 0dbe 70b7 02bf 416d 06c0 e0d8 003f
000001f0: 3850 0a40 e342 debf f1a7 98be 16c1 3a3d
00000200: cb99 24bf f230 37c0 e641 3abf bf0d d6be
00000210: 6b3e 803f 87b1 8fc0 9009 d9be a333 27bf
00000220: 3ea4 8bbf 9a4c 34be b381 0c40 f682 7cbf
00000230: 3f01 58bf 604f c3be de14 a9bf 8ffd e03d
00000240: 6f04 a03d 62cf f8bd 6f79 963d c19a 8e3e
00000250: 17b4 223e 9291 4f3e e7b8 2fbd 88b5 033e
00000260: 592d 853d 7d75 54bd c367 68bb d3c4 333d
00000270: 7bf6 8b3d f095 14be 984a de3d a5a0 eb3d
00000280: de61 413e 27e4 2b3e b99c 5dbd a6b9 2c3e
00000290: b606 97bc 4da8 3b3e 20e0 9dbe b517 bcbe
000002a0: 6339 83bf 6158 703e 6286 db3d b5a8 063f
000002b0: bbfe 1f3e 4542 f0bf 315a 3240 a83d 7cbe
000002c0: 4b48 543f f8ab d13e fec5 113e 5669 b33e
000002d0: fe7d 0e3e 672f fa3f d5ad d5be d6e9 95be
000002e0: 072e 0240 5629 963d a69e 9e3f a312 01bf
000002f0: 678e 353f 0f94 6e3d 5de3 823f 7c53 563d
00000300: 1b45 083f f274 e1be 19b0 94be f188 5e3f
00000310: 0703 a2bf 1914 1dc0 16fb 2c3f 0cdd cf3e
00000320: affc c53f 2583 903e 111d 04c0 e7e6 f5be
00000330: 1922 aabf 6f51 91be 7606 5fbf 68cb 273f
00000340: 78f1 b63d 63ec 3e3f 3d04 1a3f 3aab 823f
00000350: b5fa 413f e316 2e40 d9c5 a1bd 11e2 803e
00000360: 6893 ca3f 8de8 443e 83a7 893f bfc0 80be
00000370: 14b0 e53e ff46 2fbe 8f3a 1f3f 7b53 9c3e
00000380: fa10 c8be c9fc 95bf e5c9 a4bf 2447 6dbe
00000390: 223e d33e 5d8e e3be 1b81 9d3f c19a 1cc0
000003a0: 128b 503f 8e2f 92bf ef1c 83bf 2189 b43e
000003b0: e9df b43f a692 f8be 4f06 093e 33b9 4b40
000003c0: e9a5 51be 3b97 bbbf c83b 0340 24f1 45bf
000003d0: b8cf 983f f9c7 d7be 7acb ef3e 592c b1bf
000003e0: c8dc 45bf 2550 8fbe 40b2 0bc0 5278 83bf
000003f0: 54e9 ff3e 82d1 7cbf 8e66 af3e 10ec b33f

model.convs1.5.bias f4 [16]
0.47346964 0.497841 0.6273615 -0.18834567 -0.16147843 -1.2402991 1.3966998 1.9846483
-0.81626636 -0.19490403 0.5061925 -0.0080311205 0.3858047 -0.36086646 0.8616469 0.45538163
00000000: 9d6a f23e 04e5 fe3e c39a 203f b0dd 40be
00000010: 9a5a 25be 1fc2 9ebf 0fc7 b23f f508 fe3f
00000020: d5f6 50bf ec94 47be d595 013f f694 03bc
00000030: 3288 c53e 7dc3 b8be e494 5c3f c827 e93e

model.convs2.0.weight f4 [16, 4]
1.1735982 -0.19739874 -0.35729626 -0.15086551 -2.4972289 0.0764658 3.307268 0.10516292
1.9632533 0.04305944 -0.09544586 0.073617384 1.9910635 -0.06319272 -1.1574268 0.027033279
1.9334643 -0.020096578 0.80253863 -0.034375336 3.2211695 -0.06250083 0.47425577 0.054526817
-0.086358964 0.027132666 -0.91297376 0.052162647 -2.2237802 0.10391562 3.1207094 0.07231173
0.6859257 -0.0076967934 0.7537707 0.033329856 -0.91701764 -0.080409676 1.5629894 -0.11701973
-0.25834072 -0.034965746 0.46434924 -0.11709454 0.48916727 0.004410627 1.1602671 0.101559386
-0.06820648 -0.2111109 0.11973963 -0.18832125 -0.70544434 0.07007676 0.26522437 0.08751178
-3.0598526 0.21259049 -0.5312331 0.15347186 -0.81663775 -0.013487664 1.125041 -0.023060968
00000000: 7738 963f e522 4abe 89ef b6be 7d7c 1abe
00000010: 99d2 1fc0 1a9a 9c3d 47aa 5340 a85f d73d
00000020: e24b fb3f 185f 303d 1e79 c3bd b6c4 963d
00000030: 2bdb fe3f 2f6b 81bd 9026 94bf e574 dd3c
00000040: c27b f73f 94a1 a4bc 2c73 4d3f 27cd 0cbd
00000050: a427 4e40 6f00 80bd a7d1 f23e 8357 5f3d
00000060: f8dc b0bd 5345 de3c a6b8 69bf 80a8 553d
00000070: 6a52 0ec0 b6d1 d43d b4b9 4740 2c18 943d
00000080: d498 2f3f 6235 fcbb 1ef7 403f e384 083d
00000090: abc1 6abf d4ad a4bd 0910 c83f 0aa8 efbd
000000a0: 3c45 84be 3e38 0fbd 2fbf ed3e 43cf efbd
000000b0: 2274 fa3e 0587 903b a283 943f 5efe cf3d
000000c0: d7af 8bbd 752d 58be 0d3a f53d 49d7 40be
000000d0: 0098 34bf 6884 8f3d 7dcb 873e 6039 b33d
000000e0: a0d4 43c0 52b1 593e e4fe 07bf ba27 1d3e
000000f0: 2c0f 51bf 5dfb 5cbc 5801 903f 5bea bcbc

model.convs2.0.bias f4 [16]
2.2496455 0.27003628 1.0433218 -0.7169099 3.044077 -0.7549195 2.9005995 1.7193456
3.0727627 -1.9607867 0.44581404 -2.6865575 -0.009544305 0.3820475 0.5259071 0.41702655
00000000: 31fa 0f40 3242 8a3e 928b 853f 6887 37bf
00000010: 28d2 4240 6842 41bf 6ca3 3940 8413 dc3f
00000020: 25a8 4440 0ffb fabf bd41 e43e 8ff0 2bc0
00000030: b75f 1cbc bb9b c33e d9a1 063f 8184 d53e

model.convs2.1.weight f4 [16, 16]
0.6356292 3.5707436 2.1677637 -2.3044174 0.73141235 1.0406414 -0.35274157 -0.057599068
-0.20660695 1.5156775 -0.99551666 -0.92253184 -0.5393852 -0.3730748 -0.6834019 0.3878076
-0.6470355 -0.1025159 -1.1712922 1.8467565 -0.10828042 -0.85218114 0.7913956 -2.1477838
0.8858688 -1.8490393 -0.38970912 -3.4481728 -0.1664971 -0.24175163 -1.47288 -0.26131672
-0.24098977 0.75345695 -1.2216278 1.4034129 0.062204376 0.95359707 -0.5442241 1.1300018
-0.105679065 -1.6073737 4.2173786 1.7431288 -0.40352958 2.4313228 2.2383447 -1.5283744
-1.1660123 2.6155117 1.227678 -1.7014116 -0.13710867 4.8550925 0.7935692 -2.1246305
0.9868908 -2.6159225 -0.1436838 -2.9848373 -0.5124846 0.098976605 1.1722798 -0.420754
0.97283983 1.9099239 4.9918094 1.8840121 -0.3218161 -1.2270045 -0.7457153 2.789058
-1.8762813 -1.5376844 -5.4305806 -2.0723047 -1.1419979 1.8338993 -0.8422198 4.283164
0.10767893 0.14766116 0.127778 -1.1708062 0.66546327 -1.5190498 1.0520091 0.7310497
1.3296548 0.4826051 0.6925305 -3.8707955 1.7409118 0.7676983 0.7461096 0.6894272
0.6163514 2.3759952 -0.4883262 -2.722344 -0.18022689 -0.533234 1.6619657 0.049595565
0.14709613 0.64001864 1.8884993 -0.35521787 0.5105207 -0.518251 0.47835243 -0.77305835
0.066965684 2.3137949 -0.59189254 0.6729831 0.20109056 -0.57347476 0.4339921 -0.26599875
0.14151496 0.60499257 -1.8792695 1.8653219 0.39131337 1.4336858 1.1514935 2.0824661
0.53626007 -2.7036707 -2.1161144 1.7671663 1.0230454 -1.3013934 0.2485793 0.40836334
0.95632285 2.578267 -0.7801955 -0.4017311 -0.27894598 -0.41148898 -1.0419579 -0.0997492
0.46590889 2.6900778 -1.1971791 -2.305757 -0.5486198 -0.20032382 1.545445 0.5619893
-0.07947923 0.11100767 1.9725541 0.16494325 -0.61713386 -0.17563829 0.50083107 -1.0153773
-0.082291625 0.13339823 -0.77609545 -1.3960644 -0.30768064 -0.86484486 0.1938626 -0.008750493
-0.033953182 -3.8703928 3.1492968 -2.2642794 -0.37220523 1.4004745 0.98607767 -1.6139414
-0.1875041 -0.24784687 0.09773789 0.204061 -0.2965387 0.14906822 0.14737666 -0.0184372
-0.15168081 0.26607144 0.10989642 0.23373784 -0.11329003 0.19569616 -0.22711821 0.20500465
0.22570726 1.977463 0.6459791 4.430851 1.0157717 1.015137 -0.30639532 1.1985086
0.39050868 1.5876918 -0.90734017 3.4510133 -3.1305518 1.2636728 1.3951443 2.2339962
-1.2086735 -0.43049565 -0.4560568 -2.1923018 0.82609767 -2.1974 1.49889 -1.5510327
2.1980295 0.44814306 -1.3406845 -2.6076112 0.19260724 -0.6017138 -0.75680625 0.08233501
0.78609836 -1.7823961 1.4825357 -0.7148601 1.7564319 0.073806494 -0.04166357 -0.07753071
1.0772144 0.7337526 -0.3568281 -0.99366874 -0.5193873 0.77405214 -0.23325112 1.5288097
1.0967891 -4.7361736 -1.7986028 -1.4909365 0.67992866 -5.5475044 1.0408527 1.104943
0.5367647 0.22831139 1.385236 0.038404506 1.4774082 0.43587142 -0.27883008 0.36659467
00000000: 98b8 223f 1087 6440 a4bc 0a40 937b 13c0
00000010: d73d 3b3f bd33 853f 8b9a b4be 00ed 6bbd
00000020: c690 53be b801 c23f 2eda 7ebf 0c2b 6cbf
00000030: 2615 0abf a903 bfbe 6df3 2ebf b88e c63e
00000040: 1ea4 25bf dbf3 d1bd e7ec 95bf 8462 ec3f
00000050: 20c2 ddbd 8b28 5abf e798 4a3f 4a75 09c0
00000060: 4cc8 623f 52ad ecbf f487 c7be ddae 5cc0
00000070: 377e 2abe bd8d 77be 5587 bcbf 4ecb 85be
00000080: 06c6 76be 8ee2 403f 4d5e 9cbf 09a3 b33f
00000090: 04ca 7e3d f01e 743f 4552 0bbf e6a3 903f
000000a0: 446e d8bd 6cbe cdbf c4f4 8640 d81e df3f
000000b0: 6e9b cebe cb9a 1b40 0a41 0f40 c6a1 c3bf
000000c0: e43f 95bf 8b64 2740 8d24 9d3f dbc7 d9bf
000000d0: 3766 0cbe eb5c 9b40 5a27 4b3f f2f9 07c0
000000e0: e0a4 7c3f 466b 27c0 d921 13be 9307 3fc0
000000f0: 3132 03bf 3fb4 ca3d 440d 963f 116d d7be
00000100: 080c 793f 6378 f43f e7bc 9f40 4f27 f13f
00000110: 14c5 a4be 7c0e 9dbf 33e7 3ebf ed7f 3240
00000120: fc29 f0bf d8d2 c4bf 51c7 adc0 a4a0 04c0
00000130: fd2c 92bf 36bd ea3f b89b 57bf ae0f 8940
00000140: c586 dc3d 7d34 173e 3cd8 023e fadc 95bf
00000150: cd5b 2a3f 3970 c2bf 3ca8 863f 1326 3b3f
00000160: 2132 aa3f 0418 f73e ae49 313f 1dbb 77c0
00000170: 33d6 de3f e087 443f 0a01 3f3f 4d7e 303f
00000180: 35c9 1d3f 4e10 1840 e405 fabe e23a 2ec0
00000190: 668d 38be 0682 08bf 4bbb d43f b824 4b3d
000001a0: 5ea0 163e 43d8 233f 58ba f13f 1edf b5be
000001b0: 7cb1 023f 19ac 04bf 9cea f43e 27e7 45bf
000001c0: 4e25 893d 3715 1440 4586 17bf 9f48 2c3f
000001d0: afea 4d3e 3ecf 12bf 3634 de3e fd30 88be
000001e0: 4ce9 103e cbe0 1a3f e78b f0bf dec2 ee3f
000001f0: 3a5a c83e 0483 b73f 2464 933f 2047 0540
00000200: 5748 093f f108 2dc0 6b6e 07c0 8132 e23f
00000210: 27f3 823f 0f94 a6bf 928b 7e3e 0015 d13e
00000220: 93d1 743f 5402 2540 e4ba 47bf b3af cdbe
00000230: 02d2 8ebe afae d2be e05e 85bf 4f49 ccbd
00000240: 9c8b ee3e 3c2a 2c40 2a3d 99bf 8691 13c0
00000250: 5972 0cbf b021 4dbe 24d1 c53f 88de 0f3f
00000260: 02c6 a2bd fd57 e33d a77c fc3f e2e6 283e
00000270: 7cfc 1dbf 86da 33be 7736 003f e2f7 81bf
00000280: 8388 a8bd 8c99 083e 31ae 46bf 3db2 b2bf
00000290: 5188 9dbe 7966 5dbf eb83 463e 3a5e 0fbc
000002a0: 7e12 0bbd 84b4 77c0 148e 4940 f4e9 10c0
000002b0: af91 bebe c042 b33f 966f 7c3f a295 cebf
000002c0: 1301 40be 92cb 7dbe ce2a c83d 5ef5 503e
000002d0: ecd3 97be 57a5 183e e8e9 163e 9c09 97bc
000002e0: 3752 1bbe 843a 883e 6011 e13d f958 6f3e
000002f0: 9a04 e8bd 9364 483e ad91 68be bdec 513e
00000300: ce1f 673e 821d fd3f e35e 253f 88c9 8d40
00000310: cf04 823f 02f0 813f d9df 9cbe bb68 993f
00000320: c1f0 c73e 7c39 cb3f 7247 68bf 67dd 5c40
00000330: f65a 48c0 08c0 a13f 1794 b23f cbf9 0e40
00000340: d0b5 9abf ed69 dcbe 4780 e9be ac4e 0cc0
00000350: 237b 533f 34a2 0cc0 a1db bf3f 3d88 c6bf
00000360: 84ac 0c40 0273 e53e 8d9b abbf 1ae3 26c0
00000370: d53a 453e ea09 1abf 0ebe 41bf 429f a83d
00000380: be3d 493f 8e25 e4bf bbc3 bd3f 1201 37bf
00000390: c3d2 e03f dc27 973d 6ba7 2abd 6cc8 9ebd
000003a0: 29e2 893f 36d7 3b3f 2cb2 b6be 1361 7ebf
000003b0: 91f6 04bf 4828 463f 62d9 6ebe 09b0 c33f
000003c0: 9663 8c3f bc8e 97c0 9e38 e6bf 02d7 bebf
000003d0: ce0f 2e3f 2885 b1c0 a93a 853f c66e 8d3f
000003e0: 6969 093f 76ca 693e 6a4f b13f 0b4e 1d3d
000003f0: b61b bd3f 8a2a df3e d1c2 8ebe 4cb2 bb3e

model.convs2.1.bias f4 [16]
0.4430152 -0.7904432 -0.57520473 0.63628834 0.41031042 1.6742545 0.7929015 0.4559678
0.9568681 0.48433164 0.6602108 -0.0721322 3.5167906 -0.31768894 1.6518945 -0.6576473
00000000: e3d2 e23e 7c5a 4abf 9e40 13bf cbe3 223f
00000010: 3514 d23e f94d d63f 98fb 4a3f 9d74 e93e
00000020: 4ff5 743f 51fa f73e 9303 293f 0cba 93bd
00000030: 1913 6140 20a8 a2be 4771 d33f 935b 28bf

model.convs2.2.weight f4 [32, 16]
-1.1601558 3.1332576 4.5163746 0.35750258 -1.8921968 1.5215844 -0.20616964 0.07221029
1.3410635 0.08762264 -4.369458 -2.6427107 1.0792204 -1.1959745 -0.3886423 -2.4185743
0.85929555 -1.6644689 2.6706138 0.57675874 -1.2696803 2.1457098 1.7975565 -0.16179246
-3.5075338 1.263307 -5.589566 0.39275503 -2.7198765 -2.707167 3.6698897 2.3319771
-1.1246738 2.3643775 0.49344283 1.6858228 -0.6316454 0.7354753 -0.83160394 -2.9530852
-1.498782 -1.3648742 -0.8992575 0.24083182 0.4469694 -1.1386644 1.6635853 2.0577912
2.0336878 -1.6333827 2.2817557 1.0527233 -0.45772985 -0.6044705 -1.2884449 -0.91705126
2.224782 -1.0195367 -1.7772034 0.3860997 1.22455 1.1455618 -0.7060976 -2.401458
1.2426064 -1.1011817 -1.7934769 0.23631491 -0.7096333 -0.33918992 0.3263152 0.06340099
-1.6406155 -0.06148789 1.1978935 0.74881494 0.33174112 0.62451375 0.5593736 0.04391917
1.1658665 -3.3953052 -0.60556144 -0.5531126 1.5102792 0.8299156 0.8163047 0.882378
-1.1758145 0.3279075 -0.7190428 -0.63912785 -0.75935775 -4.6148567 1.3584586 -1.310804
-0.09450721 0.62411785 0.38188705 0.09105855 1.0113336 0.12032376 0.79323584 0.0017528913
2.0537949 0.7196296 0.9882886 -1.2711314 0.20122589 0.36245513 -0.4588527 -0.67829806
2.1670015 -3.8206778 -1.7762247 -0.77731496 -1.2036384 -0.5397098 0.09460184 -0.6899803
2.8279424 0.5703201 3.532288 -0.33377063 2.0204544 5.9461813 -0.8395143 -2.062911
0.42808193 1.156943 1.0768812 0.4338631 1.3108732 0.4098348 -0.6024066 0.2178312
1.9342465 -0.2582461 -0.48372418 -1.556197 -0.32918674 -0.70522964 -1.4436816 0.69543344
-0.09229866 0.7491157 -5.30386 1.4033198 -1.0914559 -0.048852537 -0.16152081 0.5285079
-0.6238177 0.0062831636 4.5605683 -0.5175116 -0.62038994 -0.630673 -0.65262187 0.080601275
1.6767325 -0.58637625 3.8762078 -1.2487447 1.0601761 -0.39933896 1.1591508 1.3708684
-4.233669 0.8269331 -5.858098 -0.53228116 0.54067373 0.5778462 1.2584348 1.3689729
-2.169016 -0.7209734 1.8711584 -0.45316684 3.4847267 0.34896508 2.598915 0.75171995
-0.77055615 2.45527 -1.5165956 -1.6117156 0.1438374 -2.908879 0.3370244 0.1956739
-1.7394468 2.4803882 1.5851883 3.4954236 -1.4800718 1.0913163 -2.1133013 1.9375312
5.0681734 -0.96932805 0.5573309 -0.6894981 -1.0019256 -0.49038556 -0.34742343 -3.2708023
0.8858603 -1.5980065 1.9359742 -0.36458266 -0.6129994 0.7211081 0.28183818 1.7461437
-2.0002825 0.940475 -4.153638 -0.3745127 0.71416587 -1.4754614 -0.36018696 0.7545793
0.44171685 0.25620073 -1.2062753 -0.3927025 0.67780906 -0.17478399 0.55976874 0.81087565
-2.0464778 0.57007086 1.3591385 0.95059603 -0.6380208 -0.2457936 0.9788448 0.24316527
-2.6032567 1.6933681 -0.38757646 -5.239902 -0.47421774 1.266123 2.7380664 0.6069173
-1.8795178 1.9447119 -1.9217242 -2.5934527 2.4974859 -5.3844247 0.40986115 0.861929
00000000: fc7f 94bf 4b87 4840 2486 9040 940a b73e
00000010: 8133 f2bf 47c3 c23f 221e 53be fde2 933d
00000020: f8a7 ab3f 8073 b33d 9ad2 8bc0 2c22 29c0
00000030: e523 8a3f b115 99bf 20fc c6be ecc9 1ac0
00000040: cbfa 5b3f 510d d5bf 56eb 2a40 76a6 133f
00000050: e284 a2bf 4f53 0940 5516 e63f ecac 25be
00000060: 6f7b 60c0 0bb4 a13f badd b2c0 3017 c93e
00000070: 7512 2ec0 3942 2dc0 79df 6a40 1d3f 1540
00000080: 50f5 8fbf f651 1740 8aa4 fc3e 0bc9 d73f
00000090: 83b3 21bf 1c48 3c3f ffe3 54bf 59ff 3cc0
000000a0: 17d8 bfbf 33b4 aebf bd35 66bf 9e9c 763e
000000b0: 2cd9 e43e c1bf 91bf 5df0 d43f dab2 0340
000000c0: f127 0240 af12 d1bf 4908 1240 a3bf 863f
000000d0: 915b eabe 94be 1abf c3eb a4bf dfc3 6abf
000000e0: d462 0e40 2e80 82bf 677b e3bf dcae c53e
000000f0: 0ebe 9c3f c5a1 923f d0c2 34bf 7db1 19c0
00000100: ba0d 9f3f 86f3 8cbf a790 e5bf 89fc 713e
00000110: 87aa 35bf 4daa adbe c912 a73e 61d8 813d
00000120: b0ff d1bf bada 7bbd 9354 993f 56b2 3f3f
00000130: f9d9 a93e 22e0 1f3f 1c33 0f3f 96e4 333d
00000140: 1d3b 953f ae4c 59c0 1306 1bbf ca98 0dbf
00000150: d450 c13f 5975 543f 58f9 503f 86e3 613f
00000160: 1781 96bf 7ee3 a73e 3013 38bf e29d 23bf
00000170: 4565 42bf e8ac 93c0 f9e1 ad3f 6dc8 a7bf
00000180: ff8c c1bd 30c6 1f3f b386 c33e e87c ba3d
00000190: 6173 813f 4e6c f63d 8111 4b3f 46c1 e53a
000001a0: 6071 0340 a539 383f 7b00 7d3f 6fb4 a2bf
000001b0: 290e 4e3e b893 b93e beee eabe f1a4 2dbf
000001c0: 27b0 0a40 fc85 74c0 555b e3bf 1dfe 46bf
000001d0: d310 9abf 6c2a 0abf 9cbe c13d 8da2 30bf
000001e0: 02fd 3440 8000 123f 0211 6240 fce3 aabe
000001f0: 204f 0140 1e47 be40 69ea 56bf bc06 04c0
00000200: 8e2d db3e b516 943f 3ed7 893f 4e23 de3e
00000210: b1ca a73f ded5 d13e 5237 1abf 240f 5f3e
00000220: 6495 f73f d538 84be b2aa f7be 7731 c7bf
00000230: 2a8b a8be ee89 34bf 8fca b8bf ed07 323f
00000240: 1407 bdbd 0cc6 3f3f 39b9 a9c0 fc9f b33f
00000250: d4b4 8bbf 9919 48bd b665 25be 4b4c 073f
00000260: 84b2 1fbf ffe2 cd3b 2df0 9140 a47b 04bf
00000270: e0d1 1ebf c973 21bf 3a12 27bf 4812 a53d
00000280: 2c9f d63f c11c 16bf ca13 7840 ded6 9fbf
00000290: dab3 873f 2876 ccbe 0e5f 943f 9e78 af3f
000002a0: 377a 87c0 e3b1 533f 8a75 bbc0 9443 08bf
000002b0: 9869 0a3f bbed 133f 6414 a13f 813a af3f
000002c0: 28d1 0ac0 b691 38bf 1e82 ef3f 7c05 e8be
000002d0: c305 5f40 8dab b23e a054 2640 b870 403f
000002e0: 2b43 45bf 2523 1d40 ce1f c2bf b24c cebf
000002f0: 1d4a 133e 132b 3ac0 768e ac3e bd5e 483e
00000300: 31a6 debf aebe 1e40 73e7 ca3f 05b5 5f40
00000310: fe72 bdbf 41b0 8b3f 5440 07c0 0601 f83f
00000320: 7a2e a240 e225 78bf 3dad 0e3f f382 30bf
00000330: 193f 80bf d113 fbbe 7ce1 b1be d354 51c0
00000340: bec7 623f 7a8b ccbf 01ce f73f 94aa babe
00000350: 87ed 1cbf 8a9a 383f 184d 903e a381 df3f
00000360: a104 00c0 f8c2 703f 9aea 84c0 21c0 bfbe
00000370: 93d3 363f ebdb bcbf 6d6a b8be 1c2c 413f
00000380: b628 e23e be2c 833e 3b67 9abf 4d10 c9be
00000390: e584 2d3f 93fa 32be 014d 0f3f 8c95 4f3f
000003a0: 7ef9 02c0 2af0 113f 40f8 ad3f 435a 733f
000003b0: 5555 23bf 51b1 7bbe 9395 7a3f 5100 793e
000003c0: c29b 26c0 49c0 d83f 6c70 c6be 47ad a7c0
000003d0: abcc f2be 5210 a23f 7b3c 2f40 ef5e 1b3f
000003e0: 0a94 f0bf 52ec f83f 0ffb f5bf 21fb 25c0
000003f0: cfd6 1f40 354d acc0 52d9 d13e 61a7 5c3f

model.convs2.2.bias f4 [32]
-0.32387525 -0.17691529 -0.39324954 2.1611426 1.9511889 -0.26227725 1.8886845 -0.14768119
1.8939265 0.50532126 1.2680837 1.4587444 1.3707528 -0.8040536 1.9517576 -0.15735097
1.3886982 -0.7657229 -0.22161548 0.027670873 0.38173243 -0.00937307 -0.4437331 -0.25664982
-0.08883776 -0.46924898 0.68042845 2.185861 -0.5965244 1.604517 -1.2947559 2.9348934
00000000: fad2 a5be 4829 35be 0158 c9be 2950 0a40
00000010: 8fc0 f93f 3449 86be 6ac0 f13f bd39 17be
00000020: 2f6c f23f bc5c 013f 9150 a23f 23b8 ba3f
00000030: d474 af3f 75d6 4dbf 31d3 f93f 9d20 21be
00000040: ddc0 b13f 6a06 44bf 2bef 62be 07ae e23c
00000050: 6f72 c33e 8191 19bc fc30 e3be 9b67 83be
00000060: 92f0 b5bd 6741 f0be 8f30 2e3f 26e5 0b40
00000070: d3b5 18bf d060 cd3f 90ba a5bf 4bd5 3b40
